src/bread/tests/saved_models/best_model_on_internal_seed31_[64, 64, 5]_lr0.01_b256_.pth (torch, 19423 bytes, 4 tensors)

layers.0.weight f4 [64, 64]
-0.05418233 -0.014950367 -0.21241741 0.13923362 -1.6352445 -0.18638957 0.48525795 0.11998921
0.11013091 -0.449557 -0.21180345 0.13518229 -0.27214256 -0.052661005 -0.5811192 -0.74254185
-0.030902518 -0.1838671 -0.44876486 0.17887811 -2.6260624 -0.505218 0.7272039 0.051944625
0.008244477 -0.3277294 -0.109931394 0.033668347 -0.38511407 -0.06720599 -0.4518657 -0.23075876
-0.031959686 -0.13519591 0.04131838 0.017581936 0.59958094 0.29737654 0.018285796 -0.022208484
0.13411506 -0.045025084 0.15705414 0.1413969 0.04281993 0.16195197 0.06118315 -0.21693319
-0.2248725 -0.2371712 0.40620655 0.09799061 3.6017067 0.98470426 -0.52107865 0.1806716
0.63966995 0.4281397 0.34472427 -0.077230714 0.3608346 0.3220986 -0.2450325 -0.28113014
-0.030590735 -0.07751103 -0.17065687 0.08080858 -0.7839172 -0.2420979 0.21397153 0.044298287
-0.12318733 -0.24039094 -0.1391399 -0.15718894 -0.074993916 -0.057242125 -0.33468705 -0.5220671
-0.11193927 0.041867014 -0.5070998 0.24334504 -2.1754062 -0.4754061 0.64650416 0.24207205
-0.27531037 -0.22045584 -0.18807696 -0.013695765 -0.3037847 -0.09309025 -0.425617 -0.31002963
0.15040308 0.06522337 0.3048974 -0.070538744 2.3203206 0.48770538 -0.47408953 -0.16087501
0.32674578 0.3851131 0.2587465 0.043612156 0.18537332 0.0731046 0.42128554 0.34562817
0.06854833 -0.026100231 -0.031889766 0.009822496 1.1237816 0.34114957 -0.032029495 0.073963985
0.28105387 0.06162021 0.07918636 0.16050054 0.16785406 0.2360835 -0.011241719 -0.10756497
-0.21281469 -0.5997657 -0.4152716 -0.7356839 -0.4248702 -0.5699754 -0.35161325 -0.42215008
-0.5869825 0.037448816 -0.1462349 -0.30827367 -0.072081596 -0.44423163 1.1410279 1.1065102
-0.17627287 -0.18078005 -0.28295654 -0.3282984 -0.4727937 -0.5322893 -0.43605298 -0.3044782
-0.6228664 0.107640125 -0.0009427982 -0.3850498 0.045060866 -0.16051355 0.40630484 0.51057553
-0.08912749 -0.5621458 -0.00037256515 0.47656775 -0.44082978 0.5798664 0.8146329 0.54111886
0.38434505 0.69292766 0.8056943 0.54894406 0.14618793 0.65329236 -1.2699248 -1.4082899
-0.033882476 -0.3689644 -0.15077515 -0.23713869 0.11688793 -0.36688054 -0.32886434 -0.13985899
-0.42662793 0.06396835 -0.1332055 -0.386679 -0.031626977 -0.13850164 0.49159452 0.65831155
-0.038103186 -0.21960662 -2.3821657 -1.7850735 0.110630795 0.36295798 0.3369499 0.4111548
-0.17108192 -0.37270096 0.27210253 0.75194126 -0.26200667 0.23951183 -0.6893362 -0.40769476
0.05542518 -0.21126896 0.00043405022 0.105149135 0.084180534 0.1219819 0.06047418 0.12248098
-0.06761725 0.30265433 0.14586575 -0.037751358 0.018713431 -0.029291056 0.23047933 0.28795686
0.035906866 -0.31923714 -0.45768237 0.58794636 -0.8177251 -0.13504523 0.329366 0.09988432
-0.13213699 0.5296787 0.30738947 -0.220039 0.06423946 0.052391063 0.47112635 0.5169566
0.041131232 -0.20963784 -0.105416104 0.17752007 0.037364002 0.022976099 0.21394369 0.23046686
-0.10334527 0.41702664 0.15503332 -0.20076685 0.16536374 -0.012736453 0.375862 0.30700147
00000000: 4aee 5dbd 62f2 74bc f383 59be 4293 0e3e
00000010: b14f d1bf e8dc 3ebe bb73 f83e e7bc f53d
00000020: 518c e13d 562c e6be 01e3 58be 3a6d 0a3e
00000030: 4556 8bbe 11b3 57bd 3ac4 14bf 3917 3ebf
00000040: 4727 fdbc a847 3cbe 82c4 e5be d32b 373e
00000050: 6811 28c0 f855 01bf 092a 3a3f e3c3 543d
00000060: d813 073c 26cc a7be b623 e1bd d2e7 093d
00000070: ac2d c5be 4ba3 89bd f15a e7be 064c 6cbe
00000080: 29e8 02bd cc70 0abe 763d 293d fe07 903c
00000090: 237e 193f bd41 983e 18cc 953c 91ee b5bc
000000a0: 7555 093e 396c 38bd cdd2 203e 59ca 103e
000000b0: f363 2f3d bdd6 253e 2f9b 7a3d bc23 5ebe
000000c0: fa44 66be 02dd 72be 4efa cf3e 4daf c83d
000000d0: 5d82 6640 9415 7c3f 6965 05bf fa01 393e
000000e0: 69c1 233f 2035 db3e b37f b03e 232b 9ebd
000000f0: 50bf b83e 1cea a43e cde9 7abe 4af0 8fbe
00000100: 6c99 fabc 1abe 9ebd adc0 2ebe f87e a53d
00000110: ccae 48bf 83e8 77be 5a1b 5b3e 1f72 353d
00000120: a449 fcbd 0b29 76be b17a 0ebe 23f6 20be
00000130: 6996 99bd b876 6abd 1a5c abbe 31a6 05bf
00000140: 6a40 e5bd bf7c 2b3d 4bd1 01bf 712f 793e
00000150: db39 0bc0 6e68 f3be 4c81 253f bce1 773e
00000160: 7bf5 8cbe 2dbf 61be 3f97 40be 3464 60bc
00000170: ab89 9bbe 1aa6 bebd 79ea d9be 34bc 9ebe
00000180: 4403 1a3e d593 853d 831b 9c3e 9e76 90bd
00000190: 2280 1440 85b4 f93e ddbb f2be 6bbc 24be
000001a0: 394b a73e 8b2d c53e 6c7a 843e a9a2 323d
000001b0: 81d2 3d3e ddb7 953d bdb2 d73e 2df6 b03e
000001c0: 1163 8c3d 27d0 d5bc d89e 02bd 89ee 203c
000001d0: 13d8 8f3f 28ab ae3e 5c31 03bd 6e7a 973d
000001e0: 4be6 8f3e 7965 7c3d 752c a23d 415a 243e
000001f0: efe1 2b3e dfbf 713e 302f 38bc 064b dcbd
00000200: 18ec 59be 3f8a 19bf 7b9e d4be c855 3cbf
00000210: 9688 d9be e8e9 11bf a706 b4be 0e24 d8be
00000220: 7c44 16bf ee63 193d 9abe 15be 0cd6 9dbe
00000230: 849f 93bd 5472 e3be 340d 923f 20a2 8d3f
00000240: e080 34be 681e 39be aedf 90be ba16 a8be
00000250: 0412 f2be 1d44 08bf 5642 dfbe 91e4 9bbe
00000260: 2c74 1fbf 6d72 dc3d 1e26 77ba 3f25 c5be
00000270: be91 383d aa5d 24be 3007 d03e 14b5 023f
00000280: 7988 b6bd cae8 0fbf d954 c3b9 b000 f43e
00000290: 71b4 e1be 2072 143f c88b 503f c486 0a3f
000002a0: e0c8 c43e b563 313f fb41 4e3f 9987 0c3f
000002b0: 4ab2 153e 2b3e 273f e58c a2bf d842 b4bf
000002c0: 5ac8 0abd e7e8 bcbe cd64 1abe 7cd4 72be
000002d0: f062 ef3d c4d7 bbbe e860 a8be 3237 0fbe
000002e0: fa6e dabe d701 833d 0667 08be cafa c5be
000002f0: 4a8b 01bd 60d3 0dbe 47b2 fb3e 1b87 283f
00000300: 1612 1cbd 8fe0 60be 6775 18c0 4a7d e4bf
00000310: 6692 e23d a1d5 b93e b384 ac3e e282 d23e
00000320: 1930 2fbe a9d2 bebe 0651 8b3e 397f 403f
00000330: bd25 86be 9742 753e 5678 30bf 5ebd d0be
00000340: 8305 633d e456 58be 3c91 e339 6e58 d73d
00000350: d866 ac3d a5d1 f93d c6b3 773d 4fd7 fa3d
00000360: ea7a 8abd 82f5 9a3e d55d 153e 2ba1 1abd
00000370: e94c 993c ccf3 efbc c602 6c3e 156f 933e
00000380: 1413 133d 0d73 a3be 5855 eabe a783 163f
00000390: 6f56 51bf 4c49 0abe a9a2 a83e 2690 cc3d
000003a0: eb4e 07be 0699 073f 2762 9d3e e751 61be
000003b0: fa8f 833d 0398 563d 7937 f13e 4557 043f
000003c0: 3979 283d 4dab 56be 66e4 d7bd d2c7 353e
000003d0: ff0a 193d 5f38 bc3c 0e14 5b3e 81ff 6b3e
000003e0: afa6 d3bd 8484 d53e 0ec1 1e3e d395 4dbe
000003f0: 1d55 293e 8eac 50bc fc70 c03e 4c2f 9d3e

layers.0.bias f4 [64]
-0.10873535 0.085943565 0.3502444 0.624946 -0.06173852 -0.15621905 -0.16985218 0.17021203
0.048492774 0.35435653 0.11107427 -0.13102505 -0.20303646 0.2696296 -0.03994905 0.047235344
-0.25581512 -0.17193301 -0.20293874 -0.12247472 0.03471653 -0.110331066 -0.081864156 -0.06878005
-0.18916757 0.5788086 0.025905449 0.13208601 -0.091005154 0.02133503 0.5320899 0.5662203
-0.039122224 0.057618022 -0.006214238 -0.008798203 -0.0052253436 0.15492523 -0.049851775 0.19631375
0.21733783 0.3993043 -0.10636485 0.031912602 0.03268257 -0.019931506 -0.10727616 -0.044880018
0.20096165 0.33778566 -0.052126206 -0.1618843 -0.026666364 -0.17062476 -0.14615637 -0.18404005
-0.04048127 -0.08571398 -0.12821643 0.10387019 0.09857217 -0.13870281 0.5079753 -0.13448325
00000000: a4b0 debd 2e03 b03d 3c53 b33e 76fc 1f3f
00000010: 88e1 7cbd e3f7 1fbe bbed 2dbe 104c 2e3e
00000020: 5ca0 463d 386e b53e e87a e33d 6e2b 06be
00000030: cae8 4fbe e40c 8a3e 9da1 23bd d979 413d
00000040: 33fa 82be 350f 30be 2ccf 4fbe 07d4 fabd
00000050: ec32 0e3d 41f5 e1bd 65a8 a7bd 8edc 8cbd
00000060: 25b5 41be cd2c 143f aa37 d43c 8e41 073e
00000070: e960 babd cdc6 ae3c 0b37 083f d0f3 103f
00000080: a03e 20bd e000 6c3d cea0 cbbb 5726 10bc
00000090: 5c39 abbb b8a4 1e3e 6031 4cbd 7906 493e
000000a0: cf8d 5e3e 9d71 cc3e d1d5 d9bd cab6 023d
000000b0: 29de 053d 6647 a3bc 9ab3 dbbd 1cd4 37bd
000000c0: e4c8 4d3e 3ef2 ac3e 4a82 55bd ffc4 25be
000000d0: 6b73 dabc 42b8 2ebe 04aa 15be ff74 3cbe
000000e0: b0cf 25bd d08a afbd 2b4b 03be e5b9 d43d
000000f0: 35e0 c93d 1c08 0ebe ab0a 023f fab5 09be

layers.1.weight f4 [5, 64]
0.15032206 0.0134522375 -0.36316368 -0.7166842 0.20408762 0.039548315 -0.16152354 -0.24825047
-0.033682495 -0.20606261 0.12474194 0.21724266 -0.017963944 0.055216238 -0.17086989 -0.24896833
0.1988896 0.024954768 0.08415624 -0.04431371 -0.1842223 -0.009640961 -0.0041240905 -0.27057168
-0.112287074 0.8534091 -0.016937839 0.043860644 0.1505304 0.046342265 0.2510759 0.16489373
-0.17382191 0.087438 -0.07127363 -0.44017425 -0.20186588 -0.32861176 0.028021371 0.11482117
0.15573569 0.19420943 -0.0617569 0.0052550514 -0.22032887 -0.1953366 -0.013464715 -0.019864231
-0.013689039 -0.25438234 0.0546206 -0.11411737 0.16456483 0.2873901 -0.00651395 -0.07679075
0.10354227 0.0959446 0.19580945 0.070044875 0.093238324 0.12433773 0.11525194 -0.0017664647
0.20959163 0.1664084 -0.34875867 0.04543615 -0.099962205 0.10660403 0.0026996308 0.062488552
-0.022040691 -0.3569113 0.10387932 -0.09969364 0.01750496 0.031159868 0.1316485 0.015355964
-0.14142743 0.07937136 -0.30829394 0.03136997 0.16499358 0.06809914 -0.04387969 -0.21426086
0.07019674 -0.18482743 -0.03598434 -0.23186617 0.0019054848 0.060931854 -0.63175964 0.09757519
-0.061603297 0.007972875 0.068638474 0.10900296 0.018458303 0.19356443 0.112949125 -0.15610152
0.07662831 0.18200809 -0.032612115 -0.07537312 0.12306997 0.24777363 -0.09152523 -0.123719685
0.16269438 0.30123764 0.082498595 0.049951382 0.13871238 -0.033243813 -0.32576776 0.006121999
-0.118822806 -0.0032068442 -0.11380846 0.013148077 0.030100824 -0.19965371 -0.6281814 0.13499698
0.015374225 -0.20385599 0.5839318 0.06982793 0.06839804 -0.075219676 -0.034570333 -0.00010021089
-0.030576704 0.086086944 0.12112564 -0.08223865 -0.13569705 0.24193105 -0.07089826 -0.16972354
-0.020461196 0.055788092 0.032501202 0.32697 -0.010943502 0.15638237 -0.039888464 -0.2610285
0.077039525 -0.26059324 -0.085594915 -0.23172028 0.06763072 0.050989438 0.035541054 -0.3741411
0.30828235 0.03597714 -0.22576657 0.10008016 0.21559356 -0.064884454 -0.51814234 -0.15840217
-0.26869118 0.12871145 -0.062604815 0.011739036 0.0517561 -0.12096308 0.012674677 -0.13110092
-0.31785136 -0.28734556 0.16144165 -0.066571236 -0.31147057 -0.13209806 0.17946808 0.16276741
0.119367644 0.047874525 -0.10688531 0.100553565 0.05206423 0.0013327362 0.2438895 -0.05949296
-0.29269773 -0.08266712 -0.20860913 0.09519842 -0.11685112 -0.14719284 0.06436256 -0.041459046
-0.12348893 0.20428604 -0.42528918 -0.1680151 -0.0018751506 -0.3333539 0.07675471 0.10024796
0.096956596 -0.06477907 0.049577735 -0.026284799 -0.079471774 -0.068721525 -0.06793524 0.3229785
0.15023045 -0.105182655 0.04980129 0.18775754 0.09335669 0.10150363 0.015188684 0.12805578
-0.17578906 0.09616132 0.14433166 0.10469818 -0.041451074 -0.13912027 0.09735827 0.46176162
-0.0066977656 -0.60682106 -0.07774443 0.07621721 0.12531999 -0.20148076 -0.049385324 -0.048699558
-0.0451527 0.2349454 -0.18720017 -0.050853733 0.19116107 0.06993983 0.11264326 0.14494637
-0.041674864 0.06444106 -0.086568706 0.008838629 -0.12774585 0.2215932 0.13937792 -0.03465105
00000000: 07ee 193e c666 5c3c 97f0 b9be 9e78 37bf
00000010: 58fc 503e 6afd 213d 6d66 25be 5f35 7ebe
00000020: a8f6 09bd 1402 53be b478 ff3d dc74 5e3e
00000030: 1f29 93bc 6c2a 623d 84f8 2ebe 8ef1 7ebe
00000040: b7a9 4b3e f16d cc3c 1b5a ac3d 4b82 35bd
00000050: c5a4 3cbe 1ff5 1dbc 6123 87bb 5f88 8abe
00000060: c4f6 e5bd 0579 5a3f 39c1 8abc 38a7 333d
00000070: a424 1a3e 63d1 3d3d 058d 803e e7d9 283e
00000080: 5ffe 31be b212 b33d e9f7 91bd 855e e1be
00000090: eeb5 4ebe cd3f a8be 138d e53c 5d27 eb3d
000000a0: 2d79 1f3e d6de 463e cef4 7cbd 9132 ac3b
000000b0: e49d 61be 5106 48be 1c9b 5cbc 50ba a2bc
000000c0: fe47 60bc 673e 82be dab9 5f3d 5eb6 e9bd
000000d0: af83 283e cc24 933e f972 d5bb 7844 9dbd
000000e0: f80d d43d 9a7e c43d 4682 483e b073 8f3d
000000f0: bcf3 be3d c8a4 fe3d 3609 ec3d b888 e7ba
00000100: 309f 563e f766 2a3e 7f90 b2be 421b 3a3d
00000110: fcb8 ccbd 3753 da3d 4aec 303b fff3 7f3d
00000120: ae8e b4bc 14bd b6be aebe d43d 2e2c ccbd
00000130: 9066 8f3c fb42 ff3c ddce 063e 9597 7b3c
00000140: 5ad2 10be 748d a23d b4d8 9dbe cc7d 003d
00000150: 14f4 283e 9077 8b3d 31bb 33bd 3367 5bbe
00000160: 4fc3 8f3d 6743 3dbe 5164 13bd 536e 6dbe
00000170: 76c1 f93a ae93 793d 00bb 21bf 80d5 c73d
00000180: bd53 7cbd a9a0 023c 5492 8c3d f23c df3d
00000190: de35 973c c135 463e df51 e73d 14d9 1fbe
000001a0: 4eef 9c3d 5460 3a3e 4894 05bd 395d 9abd
000001b0: 1c0c fc3d 5fb8 7d3e 9471 bbbd bf60 fdbd
000001c0: 5b99 263e d23b 9a3e 06f5 a83d d299 4c3d
000001d0: 9e0a 0e3e aa2a 08bd 08cb a6be 0d9b c83b
000001e0: 5f59 f3bd eb29 52bb 6914 e9bd 086b 573c
000001f0: 0196 f63c 0672 4cbe 7fd0 20bf a63c 0a3e
00000200: 2ce4 7b3c a0bf 50be 8e7c 153f f201 8f3d
00000210: 4614 8c3d c60c 9abd 9f99 0dbd 5028 d2b8
00000220: ff7b fabc 5a4e b03d b810 f83d bd6c a8bd
00000230: 2bf4 0abe c6bc 773e 1b33 91bd 02cc 2dbe
00000240: 3d9e a7bc 0e82 643d fb1f 053d 9d68 a73e
00000250: 604c 33bc b322 203e 1662 23bd 87a5 85be
00000260: e6c6 9d3d 7a6c 85be 634c afbd 1548 6dbe
00000270: fa81 8a3d 4dda 503d 7f93 113d 6c8f bfbe
00000280: 2fd7 9d3e c45c 133d 5a2f 67be d4f6 cc3d
00000290: 8fc4 5c3e 24e2 84bd faa4 04bf 2e34 22be
000002a0: e491 89be efcc 033e f436 80bd 1655 403c
000002b0: 34fe 533d 7ebb f7bd 73a9 4f3c 523f 06be
000002c0: 6abd a2be f51e 93be f650 253e 8056 88bd
000002d0: 1279 9fbe b744 07be 7bc6 373e 80ac 263e
000002e0: 0677 f43d 1418 443d afe6 dabd 07ef cd3d
000002f0: 4d41 553d 35af ae3a 2bbe 793e e4ae 73bd
00000300: 7adc 95be 614d a9bd a29d 55be 64f7 c23d
00000310: a44f efbd b8b9 16be 85d0 833d f6d0 29bd
00000320: c4e7 fcbd 5c30 513e 81bf d9be 260c 2cbe
00000330: 9dc7 f5ba 5dad aabe 9331 9d3d cd4e cd3d
00000340: 2e91 c63d e4aa 84bd 0612 4b3d 3853 d7bc
00000350: 19c2 a2bd dfbd 8cbd a221 8bbd 705d a53e
00000360: 03d6 193e 016a d7bd 70fc 4b3d 8343 403e
00000370: cb31 bf3d 23e1 cf3d f5d9 783c 0e21 033e
00000380: 0c02 34be 3af0 c43d aecb 133e 006c d63d
00000390: 9ac8 29bd 8b75 0ebe c663 c73d 056c ec3e
000003a0: ee78 dbbb a058 1bbf 7938 9fbd c517 9c3d
000003b0: e253 003e f950 4ebe 4448 4abd 3079 47bd
000003c0: 0af2 38bd 8795 703e 67b1 3fbe 014c 50bd
000003d0: babf 433e 9d3c 8f3d 82b1 e63d d26c 143e
000003e0: 43b3 2abd adf9 833d ef4a b1bd e6cf 103c
000003f0: cfcf 02be 54e9 623e 16b9 0e3e 42ee 0dbd

layers.1.bias f4 [5]
-0.019113699 -0.041930206 0.061727695 0.036631532 -0.2134676
00000000: 5594 9cbc 02bf 2bbd 2ed6 7c3d f20a 163d
00000010: 4097 5abe
