src/bread/tests/saved_models/best_model_on_internal_seed32_[64, 64, 5]_lr0.01_b256_.pth (torch, 19423 bytes, 4 tensors)

layers.0.weight f4 [64, 64]
0	0xbd459cbb	-0.048245173
1	0xbe8ac89a	-0.27106172
2	0xbedf6ba3	-0.43636808
3	0x3ddba4e9	0.107248135
4	0xc0343255	-2.815572
5	0xbeec315c	-0.46131408
6	0x3f4f4e15	0.8097852
7	0x3dab441b	0.083625995
8	0xbcab74db	-0.020929744
9	0xbed8e25a	-0.42360193
10	0xbe3393fa	-0.17536917
11	0x3dafe6e4	0.08588961
12	0xbef81053	-0.48449954
13	0xbed4e852	-0.41583496
14	0xbee398a8	-0.44452405
15	0xbf41c352	-0.7568866
16	0xbc95e28e	-0.018296506
17	0xbdea8820	-0.11451745
18	0xbed327fb	-0.4124144
19	0xbbc10a57	-0.005891125
20	0xbf972d65	-1.1810728
21	0xbe4b90ed	-0.19879504
22	0x3ead785c	0.3388089
23	0x3dce0ca4	0.10061005
24	0xbe155b3f	-0.14585589
25	0xbe369dd5	-0.17833646
26	0xbd239c86	-0.039944194
27	0xbd37795b	-0.044793468
28	0xbee1979f	-0.4406099
29	0xbe469ea4	-0.19396454
30	0xbe8c605a	-0.2741726
31	0xbf17cf15	-0.5930036
32	0xbd80898b	-0.06276234
33	0xbce0fb47	-0.027463568
34	0xbe4da664	-0.20083004
35	0x3c86e67f	0.016467331
36	0xba18de63	-0.0005831478
37	0x3e0c4005	0.13696297
38	0xbc75d681	-0.015004755
39	0xbe023041	-0.1271372
40	0x3e3c136e	0.18366787
41	0x3e9ba7b6	0.3040139
42	0x3ea29178	0.3175161
43	0x3e6a6bdf	0.22892712
44	0x3e17c58c	0.14821452
45	0x3e9f286f	0.31085536
46	0xbdd0229d	-0.10162852
47	0x3bde48d1	0.0067835827
48	0xbe7d8515	-0.24757798
49	0xbee78634	-0.45219576
50	0x3f125e23	0.5717489
51	0x3dd004a9	0.10157139
52	0x405b0d22	3.4226766
53	0x3f9823c2	1.1885912
54	0xbe70f9eb	-0.23532836
55	0xbd5877a7	-0.052848484
56	0x3f7a1295	0.97684604
57	0x3eb7d37f	0.35903546
58	0x3e1233e2	0.14277604
59	0xbbc0b993	-0.005881497
60	0x3e99c8b6	0.30035943
61	0x3f3b444f	0.73151106
62	0xbfa81485	-1.3131262
63	0xbf0eb3e5	-0.5574325
64	0xbc689a98	-0.014197014
65	0x3dfb17b9	0.12260384
66	0xbbb756c0	-0.005595058
67	0x3bebef04	0.0072001237
68	0x3f721fce	0.9457978
69	0x3e61ceee	0.22051594
70	0xbcd63999	-0.026150512
71	0xbdded74a	-0.10880907
72	0x3e42540c	0.18977374
73	0x3e3b4160	0.18286657
74	0x3db416f0	0.087934375
75	0xbe045f97	-0.1292709
76	0xbe85abdb	-0.26107678
77	0x3d7c674f	0.06162196
78	0xbf2d7b93	-0.67766684
79	0xbf763e86	-0.96189153
80	0x3df21777	0.11820882
81	0x3dc9f068	0.09860307
82	0xbde19992	-0.11015619
83	0x3db891ba	0.0901217
84	0x3f7d5546	0.9895824
85	0x3eaa62fe	0.3327865
86	0xbc1cbef5	-0.009567012
87	0x3e1ad2ee	0.15119526
88	0x3de2631e	0.11054061
89	0x3e0d9440	0.13826084
90	0x3cf8245a	0.030290771
91	0x3ebb05d5	0.36527887
92	0x3df657da	0.12028475
93	0x3df4ea85	0.119587936
94	0x3dbdb129	0.09262306
95	0xbed813a0	-0.42202473
96	0xbef7b1a6	-0.48377723
97	0xbe4b6efa	-0.19866553
98	0xbf63b1e7	-0.8894333
99	0x3e7cfe3b	0.24706356
100	0xc07ecd76	-3.9812903
101	0xbf669fd0	-0.90087605
102	0x3f46a09a	0.7758881
103	0x3ea7cfd6	0.32775754
104	0xbf012c5b	-0.50458306
105	0xbea5e352	-0.32399994
106	0xbe464f3d	-0.19366165
107	0x3d871399	0.06595535
108	0xbdc3732d	-0.095434524
109	0xbe835d1d	-0.25656977
110	0x3e86d881	0.26337054
111	0x3f21a034	0.63135076
112	0x3e4f5660	0.20247793
113	0x3d517fde	0.051147334
114	0x3da8e1ce	0.08246194
115	0xbd607787	-0.05480149
116	0x3fc4c6c1	1.5373155
117	0x3f135796	0.5755552
118	0xbd896768	-0.06709176
119	0x3e22eec0	0.15911388
120	0x3db8d388	0.090247214
121	0x3e5b81ca	0.2143623
122	0x3d3b4b05	0.04572584
123	0x3e0c551b	0.1370434
124	0xbd2d6ef8	-0.042342156
125	0x3d35ec6c	0.044414923
126	0x3e016e3c	0.12639707
127	0xbe800347	-0.250025
128	0x3ca9f087	0.020744575
129	0xbe0e2fcc	-0.1388542
130	0x3ed7d26a	0.4215272
131	0xbec5cce0	-0.3863287
132	0x4087b964	4.2413807
133	0x3fb16136	1.3857791
134	0xbedc1097	-0.42981407
135	0x3e1e850d	0.15480442
136	0x3f43875c	0.76378417
137	0x3f4aecbc	0.7926748
138	0x3f033031	0.5124541
139	0x3ce04b26	0.027379584
140	0x3f21904b	0.631108
141	0x3e167959	0.14694728
142	0x3f1f9658	0.6233878
143	0x3f3f5996	0.7474607
144	0x3ca3a2dd	0.01997512
145	0xbe31e8fc	-0.17374033
146	0xbd30480a	-0.04303745
147	0x3d42fa7d	0.047602165
148	0xbf104d47	-0.56367916
149	0x3c92b324	0.017907687
150	0x3e8f64a5	0.28006473
151	0x3c8e071e	0.017337378
152	0x3d6896d9	0.056784485
153	0xbe2213c9	-0.1582786
154	0xbd03037c	-0.031985745
155	0x3c64aae6	0.013956761
156	0xbe093a20	-0.13401079
157	0x3d4acf89	0.049514327
158	0xbf1686e6	-0.5879959
159	0xbf3dcda2	-0.74141896
160	0x3c7dd8a2	0.015493544
161	0xbe462693	-0.19350652
162	0xbf0ea90b	-0.5572669
163	0x3ee99faa	0.45629627
164	0xc00a4be5	-2.1608822
165	0xbec8d659	-0.39226034
166	0x3f13216c	0.5747287
167	0x3e8c9695	0.27458635
168	0x3de6e8fe	0.112749085
169	0xbeda692e	-0.4265837
170	0xbe458667	-0.19289552
171	0xbdc4e23f	-0.096134655
172	0xbe9fc8f9	-0.31208017
173	0xbdf6ad36	-0.12044756
174	0xbf280957	-0.6563925
175	0xbf41998b	-0.7562491
176	0x3ca18c81	0.019720318
177	0xbe3ff5e6	-0.18746147
178	0xbe860566	-0.26175994
179	0x3e3dac1f	0.1852269
180	0xbfa973e9	-1.3238498
181	0xbe62f30a	-0.22163025
182	0x3ed7205c	0.42016876
183	0x3e7c6529	0.24647965
184	0x3df3867b	0.118908845
185	0xbe11e023	-0.14245658
186	0xbe472d2b	-0.19450824
187	0x3d8a6717	0.06757944
188	0xbe81f64a	-0.25383216
189	0xbd91f240	-0.07126284
190	0xbf314a7e	-0.6925429
191	0xbf6ee5fd	-0.93319684
192	0xbdc37c45	-0.09545187
193	0xbdb92c8a	-0.09041698
194	0xbcf13c6e	-0.02944776
195	0xbd95483a	-0.07289167
196	0xbd1c2b28	-0.038127095
197	0xbe2979b7	-0.16550337
198	0xbd85ffdb	-0.06542941
199	0x3c8ae0ce	0.016952898
200	0x3d1a21f0	0.03763002
201	0xbe27a527	-0.16371594
202	0xbd8c1c36	-0.06841318
203	0x3cee383b	0.029079547
204	0xbe21f1a1	-0.1581483
205	0x3ceeca0e	0.029149082
206	0x3d1d7045	0.038437147
207	0x3d9bae3a	0.076015905
208	0xbc58e997	-0.013239286
209	0xbd56117c	-0.05226277
210	0xbd91d54b	-0.071207605
211	0xbe28870a	-0.16457763
212	0xbdcb500b	-0.09927376
213	0xbe0f53a3	-0.13996749
214	0xbd8c7b9c	-0.06859514
215	0x3d128087	0.035767104
216	0xbdd39738	-0.10331577
217	0x3ccfd776	0.025371294
218	0xbd2bc2a6	-0.041933678
219	0xbd015e29	-0.03158394
220	0x3a2d3733	0.00066076516
221	0xbe32b55f	-0.17452
222	0x3d98c687	0.07459741
223	0x3d7d1814	0.06179054
224	0xbda90132	-0.08252181
225	0xbd4569f2	-0.04819674
226	0x3d4fcf69	0.05073491
227	0xbdac1982	-0.08403303
228	0xbd74b4dd	-0.059742797
229	0x3c81fd1d	0.015867764
230	0xbd280630	-0.041021526
231	0xbe54466b	-0.20729987
232	0xbd34c050	-0.044128716
233	0xbdddd51a	-0.108316615
234	0xbe14b6b5	-0.14522822
235	0x3d3d105c	0.04615818
236	0xbd55444d	-0.05206709
237	0xbd1cf2c8	-0.03831747
238	0xbdc32deb	-0.095302425
239	0x3bbec308	0.0058215894
240	0x3c9d0765	0.019168565
241	0xbd9b9277	-0.07596295
242	0x3d0eb0a6	0.034836434
243	0xbe34d72e	-0.1766021
244	0xbe088986	-0.13333711
245	0xbe14f06d	-0.1454484
246	0xbd057814	-0.03258522
247	0xbd54030b	-0.051760715
248	0xbe2b9ca4	-0.16758972
249	0xbddde9f1	-0.108356364
250	0xbdeab019	-0.11459369
251	0xbcea38d7	-0.028591556
252	0x3cea418f	0.028595714
253	0xbc6b0a1b	-0.014345671
254	0xbe241ea3	-0.16027312
255	0xbdc7e0a2	-0.09759642

layers.0.bias f4 [64]
0	0x3d13b286	0.036058925
1	0xbce1a226	-0.027543139
2	0xbc8d39ea	-0.01723953
3	0xbdefed5f	-0.11715197
4	0xbd77b3fd	-0.060474385
5	0xbd900c42	-0.07033588
6	0xbe8ffd05	-0.28122726
7	0xbd8e2602	-0.06940843
8	0xbdf837f4	-0.12120047
9	0xbd0f3680	-0.034964085
10	0xbe11b1e6	-0.14228019
11	0xbe501008	-0.20318615
12	0xbe084221	-0.13306476
13	0xbe63eab6	-0.22257504
14	0x3d0ce5d8	0.034398884
15	0x3f05edcb	0.5231597
16	0xbda23557	-0.0792033
17	0x3d2e537f	0.042560097
18	0xbd8cca95	-0.06874577
19	0xbe07f030	-0.13275218
20	0x3d613f60	0.05499208
21	0xbd8259be	-0.06364773
22	0x3f6432ba	0.891399
23	0xbd043e62	-0.032286055
24	0xbe2dc356	-0.16969046
25	0xbdd74d7d	-0.105128266
26	0x3f12dc4d	0.573674
27	0xbda0d759	-0.07853574
28	0x3d9ae34f	0.07562887
29	0xbda04929	-0.07826454
30	0x3e434770	0.1907022
31	0xbe05a836	-0.13052449
32	0x3f29724a	0.66190016
33	0x3e2ff905	0.17184837
34	0x3b8a0361	0.0042118286
35	0xbe0175ed	-0.12642641
36	0x3ecdd962	0.40204912
37	0xbe750854	-0.23928958
38	0xbd7131a3	-0.058885228
39	0x3e670655	0.22561009
40	0x3ec866ac	0.39140832
41	0xbe8a764b	-0.27043375
42	0xbdca8e44	-0.09890416
43	0x3e122ef4	0.14275724
44	0xbec3dfb9	-0.38256624
45	0x3e221ab1	0.15830494
46	0x3d75e489	0.0600324
47	0x3c6ee10c	0.014580023
48	0x3d05a68c	0.032629535
49	0xbe30dac1	-0.17270948
50	0xbc8680b8	-0.0164188
51	0xbe26c88b	-0.16287439
52	0xbd38d11f	-0.04512131
53	0xbcf93590	-0.030421048
54	0xbe176e8d	-0.14788266
55	0xbe6d5334	-0.2317627
56	0xbcf938fc	-0.03042268
57	0xbe240188	-0.16016209
58	0xbe055780	-0.1302166
59	0xbcdc2845	-0.02687467
60	0xbcc80c02	-0.024419788
61	0x3e079465	0.13240202
62	0x3ec1c2a1	0.37843803
63	0xbe43770f	-0.19088386

layers.1.weight f4 [5, 64]
0	0x3e32355a	0.17403165
1	0xbce82df5	-0.028342227
2	0xbec29224	-0.3800212
3	0x3d27b0ce	0.0409401
4	0xbc574bc8	-0.013140626
5	0xbdc69269	-0.09695894
6	0x3e0c4854	0.13699466
7	0x3d3ad9ee	0.04561799
8	0x3ca2297f	0.019795178
9	0xbdd33349	-0.10312516
10	0x3d4d363e	0.050100558
11	0x3e759dc0	0.23985958
12	0xbc0eb5ac	-0.008710306
13	0xbdd7c6a3	-0.10535934
14	0x3d2b2fe6	0.041793726
15	0x3e2f986b	0.17147987
16	0xbd05fe2d	-0.032713104
17	0x3b071ef3	0.0020617812
18	0xbe298b5a	-0.16557065
19	0xbc634dfe	-0.013873575
20	0xbe71daa3	-0.2361856
21	0xbdd93252	-0.10605301
22	0xbf91d7b9	-1.1393958
23	0xbcbfcf62	-0.023414318
24	0xbc3993d9	-0.011326754
25	0x3dc0204e	0.09381162
26	0x3f0bc1cc	0.54592586
27	0xbe00e7a5	-0.12588365
28	0x3dd362c8	0.103215754
29	0xbe58a64d	-0.21157189
30	0xbe03e2fb	-0.12879555
31	0xbcdebbc3	-0.027189141
32	0x3dee9615	0.116497196
33	0xbde904c4	-0.11377862
34	0x3dfe558a	0.12418659
35	0xba09ce5c	-0.0005256885
36	0x3e07aa8f	0.13248657
37	0x3ac773b8	0.0015216982
38	0xbd6308f7	-0.05542847
39	0x3eaba64c	0.33525312
40	0x3e37fafc	0.17966837
41	0x3db1cc69	0.08681566
42	0x3d5a1262	0.053240187
43	0x3e6a973a	0.22909251
44	0x3e27c47d	0.16383548
45	0xbea78237	-0.32716534
46	0xbe3d384c	-0.18478507
47	0x3e632175	0.22180732
48	0x3e90b836	0.28265542
49	0xbd0fa2f6	-0.03506752
50	0x3dce67f9	0.10078425
51	0x3d744148	0.05963257
52	0xbac21350	-0.0014806781
53	0x3e59393b	0.21213238
54	0xbe4f87fc	-0.20266718
55	0x3d6de97c	0.058083996
56	0x3d32e311	0.04367358
57	0x3d295881	0.04134417
58	0xbe2ecc9a	-0.17070237
59	0x3d2c223a	0.04202483
60	0x3d214300	0.039370537
61	0xbf1e2a6c	-0.6178348
62	0xbd7814c9	-0.060566697
63	0xbd95a52d	-0.073068954
64	0x3e18a3a3	0.14906172
65	0xbd000cf9	-0.03126237
66	0x3c9dde53	0.019271052
67	0xbc418848	-0.011812277
68	0x3dadd8fd	0.08488653
69	0xbd214b5b	-0.039378505
70	0xbe9f1485	-0.31070343
71	0xbe507804	-0.20358282
72	0xbd5a5076	-0.05329939
73	0x3a37d9f3	0.0007013373
74	0xbce68c5b	-0.028143099
75	0x3cf3993f	0.02973616
76	0x3c3c1776	0.011480203
77	0xbe0807de	-0.13284251
78	0x3da3545a	0.07975073
79	0xbf375f4e	-0.716298
80	0xbe1eea63	-0.15519099
81	0xbc731b38	-0.014838032
82	0xbdc6f3ec	-0.09714493
83	0x3dcb527b	0.09927841
84	0xbe70e179	-0.23523511
85	0x3cc851aa	0.024453003
86	0x3e140726	0.14455852
87	0xbe2c0e8e	-0.16802427
88	0x3d1df580	0.038564205
89	0x3d5b6b03	0.05356885
90	0x3f1f45ac	0.62215686
91	0x3e3e0b60	0.18559027
92	0xbe733af6	-0.2375296
93	0x3e7ad8ed	0.24496813
94	0xbeb1eba6	-0.34750098
95	0xbde2d742	-0.110762134
96	0x3dda1cfa	0.10650058
97	0xbf041c60	-0.51605797
98	0xbd44d0f8	-0.04805085
99	0xbbe5b98f	-0.0070106457
100	0x3e24193a	0.16025248
101	0x3dc2f8de	0.09520124
102	0x3e949ecc	0.29027402
103	0xbf1f80a9	-0.62305695
104	0x3dea06cf	0.1142708
105	0x3db6bc44	0.089226276
106	0x3c20be11	0.00981094
107	0xbcbab0d5	-0.022789398
108	0x3d10c437	0.035343375
109	0x3e0ca73a	0.13735667
110	0x3e1bcbc7	0.15214454
111	0xbdb75724	-0.08952168
112	0x3d025280	0.03181696
113	0xbcd55fc5	-0.026046643
114	0xbd9a0cef	-0.07521998
115	0x3c22455c	0.009904232
116	0x3d3be4f1	0.045872632
117	0xbd58b0ec	-0.0529031
118	0x3e5a44eb	0.21315353
119	0x3de4f734	0.11179963
120	0xbd460a21	-0.048349503
121	0xbe1e28d7	-0.15445267
122	0xbd13a733	-0.036048125
123	0xbdb63a13	-0.088977955
124	0x3d1330b8	0.035935134
125	0xbeab6441	-0.33474925
126	0xbf274cc3	-0.65351504
127	0x3e61e6e4	0.22060734
128	0xbbb88277	-0.005630787
129	0x3e75b770	0.23995757
130	0x3e1f93ed	0.15583773
131	0x3e1955cf	0.1497414
132	0x3c4ff6c6	0.012693113
133	0xbdc8cddb	-0.09804889
134	0x3d75bb73	0.05999322
135	0x3e3eb37f	0.1862316
136	0x3a8e64bd	0.0010863763
137	0xbd8151fe	-0.06314467
138	0x3d60a79f	0.054847356
139	0xbc8853c8	-0.016641513
140	0x3dac686c	0.084183544
141	0x3e9eaa24	0.30989182
142	0x3c9498fe	0.018139359
143	0x3da0fd38	0.07860798
144	0xbd79a9f8	-0.06095311
145	0xbd6855ca	-0.05672244
146	0xbe07e44a	-0.13270679
147	0x3d0ff638	0.035146922
148	0xbdcf939c	-0.10135576
149	0xb9d38300	-0.0004034266
150	0x3e2a6e69	0.1664368
151	0xbd2686f5	-0.04065605
152	0x3d8edbdf	0.06975531
153	0x3db41951	0.08793891
154	0xbf09ee46	-0.538792
155	0x3d14ecba	0.036358573
156	0x3db0132b	0.08597406
157	0xbe126d6a	-0.1429955
158	0x3e4b3a34	0.19846421
159	0x3ca0e1ed	0.01963898
160	0x3de416bd	0.111371495
161	0x3e59485c	0.21219009
162	0x3e0365b2	0.12831762
163	0xbe36fb43	-0.17869286
164	0xbf333d96	-0.7001585
165	0xbe2590cf	-0.16168521
166	0xbd797f6b	-0.06091253
167	0xbc8d9592	-0.017283235
168	0xbf31330f	-0.69218534
169	0xbec9f1b3	-0.39442214
170	0x3daf9387	0.085730605
171	0x3e480254	0.19532138
172	0xbe1a9dba	-0.1509923
173	0xbe1a36b8	-0.15059936
174	0x3debb9cc	0.11510047
175	0xbd808b6b	-0.06276592
176	0xbe2bf3f7	-0.16792284
177	0xbcb69360	-0.02228707
178	0x3ddd2f5c	0.10800049
179	0x3d11cd07	0.03559592
180	0x3e73e240	0.23816776
181	0x3c9eca65	0.019383619
182	0xbe8d2fab	-0.2757543
183	0xbd0a949d	-0.033833135
184	0xbd76c5b0	-0.060247123
185	0xbd8ab9cc	-0.06773719
186	0x3e6c112d	0.23053427
187	0x3d48c4a0	0.04901564
188	0x3e7d8119	0.24756278
189	0xbe00c362	-0.12574533
190	0xbcee5148	-0.029091492
191	0xbd09e0e9	-0.033661757
192	0xbe8d6a79	-0.27620295
193	0xbdbb9697	-0.09159582
194	0x3d9b3801	0.07579041
195	0xbdc9c55c	-0.098520964
196	0xbdf02e7a	-0.11727615
197	0x3e605baf	0.21909975
198	0xbccda6f0	-0.025104016
199	0xbadc31e6	-0.0016799539
200	0x3d88a5f5	0.06672279
201	0x3d794dea	0.06086532
202	0x3db7a03b	0.089661084
203	0xbe6eaef1	-0.23308922
204	0x3d717e8a	0.058958568
205	0xbe012dde	-0.12615153
206	0x3d4eabd2	0.05045683
207	0x3dc6398c	0.09678945
208	0x3cd507cc	0.026004694
209	0xbe046f4e	-0.12933084
210	0x3e6b3a7b	0.22971527
211	0x3df4ae54	0.11947313
212	0x3eae05c1	0.33988765
213	0x3e892eff	0.26793668
214	0x3de983ae	0.11402069
215	0x3e6e905d	0.23297258
216	0x3da80e84	0.08205894
217	0x3dbf4a35	0.09340326
218	0xbf87f552	-1.0621741
219	0xbd28c3e8	-0.041202456
220	0x3e28e724	0.16494423
221	0xbe0b8441	-0.1362467
222	0xbd870693	-0.06593051
223	0xbd229af8	-0.03969857
224	0xbf46df4e	-0.77684486
225	0xbdc6fc68	-0.097161114
226	0xbda760e9	-0.08172781
227	0xbc22b175	-0.009930004
228	0x3e14300b	0.14471452
229	0x3e0433d1	0.12910391
230	0xbda2f3c5	-0.079566516
231	0xbc901aba	-0.01759087
232	0x3de4f322	0.111791864
233	0x3ddd2c2a	0.10799439
234	0x3d7a1221	0.061052445
235	0xbe886525	-0.26639667
236	0x3e256d67	0.16155015
237	0x3da39d19	0.079889484
238	0xbd61c896	-0.055122934
239	0xbde60afd	-0.112325646
240	0xbdeb7098	-0.11496085
241	0x3de6e453	0.11274018
242	0xbb4e889f	-0.0031514538
243	0x3d1a3d90	0.037656367
244	0xbe572b0c	-0.21012515
245	0xbbf19813	-0.007372865
246	0xbe600714	-0.218777
247	0x3959c724	0.00020768918
248	0xbcca27ec	-0.02467724
249	0x3e3c947a	0.18416014
250	0x3c702f30	0.014659688
251	0xbddd5ee5	-0.10809115
252	0x3c896e46	0.016776215
253	0x3f032ae7	0.5123734
254	0x3e88325c	0.2660092
255	0xbe414bd5	-0.18876584

layers.1.bias f4 [5]
0	0x3e0869ec	0.13321656
1	0x3df9d875	0.12199489
2	0x3dc7c6a9	0.09754688
3	0xbd0bc9e4	-0.034128085
4	0xbf494b68	-0.78630686
