src/bread/tests/saved_models/best_model_on_internal_seed17_[64, 64, 5]_lr0.01_b256_.pth (torch, 19423 bytes, 4 tensors)

layers.0.weight f4 [64, 64]
00000000: 7ad7 b6bb 58e0 a6be 3b0d 97be 3d05 103f
00000010: 9a89 4dbf 580b 2a3e 28c3 cc3e 964e 933d
00000020: 7cf6 fe3c 086e 633e 790c a33e 8db3 bc3d
00000030: 4693 3fbc 1eee 0dbe 7d24 aa3e 4c8e 0d3f
00000040: 6c32 e13c 0c87 b5be dae7 84be 6b2c 103f
00000050: f9de b1be 70de cf3d 1c96 a53e 7872 82bd
00000060: a8c9 b0bd d4c9 443e 4dbc 813e 602b 8fbc
00000070: 88ba 4e3d 994e 1bbe a960 773e 0a45 1b3f
00000080: 7bf9 2a3d 0bab c0be 41b5 7fbe f992 093f
00000090: 2270 dabe 9267 653d b773 903e f1e9 1ebe
000000a0: f332 25bd eec4 873e e8eb a33e 9d44 013d
000000b0: 471a 06bd b1fa f3bc 7b03 693e e944 083f
000000c0: b8ee 77be 77cc 5bbe cb7e 02c0 0290 ecbf
000000d0: a6cd ae3e c613 e73e 1fcc 8f3e 17f9 413e
000000e0: 40bc 9ebe dd39 b3bd 39c4 623e 6b19 353f
000000f0: 45fe 0abe 94af f63d 5d23 bbbe 76f2 09bf
00000100: 0065 93bd fe03 3cbe 4fc9 22bd 3520 1abd
00000110: 69f1 12be be29 073d 0d47 48bd c806 ebbd
00000120: 6d00 47be cc88 533d a960 2ebe 89d1 b5bd
00000130: 37c7 efbb c54a 3ebe a8a0 f8bc 52e8 523d
00000140: 9c84 1cbd 4625 d6bc 0eef 38be f2ec 40be
00000150: 052b 44bd 540d 6a3d 0ee8 2ebd eb50 04be
00000160: 788a 253d a53f 22bd 3e6e 413d cf26 4dbe
00000170: 8b02 3bbe 609c 70bd 0d0c c0bc bf28 06bd
00000180: dec9 ce3b d015 14be ac0b 61be 85a8 17bd
00000190: e5d0 963c 5fd0 953d 6fff b9bd c5e2 03bd
000001a0: 1869 01be 9877 a3bc 0847 c1bc 99f3 c2bd
000001b0: 586d 203d afe6 d7bc 5e4c 18be 1fac 22be
000001c0: 8964 d8bd ab19 aabd 1073 2dbd f74c ca3b
000001d0: 403f 8dbc 8aa0 193d c199 02be fd20 aebc
000001e0: c4a6 50be 3305 563c 0b1c 11bd ced2 ecbc
000001f0: c5de 25be 6679 cf3c 5ca8 5a3d 65b2 c43d
00000200: cb0c 18bd 3828 9ebd 120d a7be d543 c63d
00000210: 741b cebf 4ebe c1be 6502 783e e22c 5a3e
00000220: 7d11 01be 1a7f bcbe e155 f1bd 50c7 313d
00000230: 95c8 7bbe 7793 ee3b ae26 00bf 8adc 99be
00000240: 4484 85bd 904e 10be 5950 debe c49f ee3d
00000250: 8767 b8bf 4b9b bcbe 65df ac3e 2a42 723e
00000260: cafd 66be d720 5cbe d781 11be 5990 37bd
00000270: 3b03 34be 97d1 4bbe acd4 b2be 09c1 9abe
00000280: eae0 463d 368f 64bc 9b83 d3bd 866d 023b
00000290: 2f4f 3f3f 759c a23e 3fb5 223d 5178 c63e
000002a0: 9926 3c3c 6fbb 073e bf90 463e c42f 6e3e
000002b0: f026 033e f2f3 463e d4dc 0abd 6edc a4be
000002c0: acfc 1b3e 8ad4 dabd 97ce 023f 6cb1 de3d
000002d0: 06ac 2c40 3213 833e 2e71 92bf 8923 33bf
000002e0: 6070 ddbd 0e95 093f d50b 873e f741 88be
000002f0: 1f7e c53e 1a3f 793e b314 be3e 27a1 9d3e
00000300: 47e8 1fbe 71f6 18be dc8f 80be 8134 44be
00000310: fbe9 f13d 5474 7fbb 605e 37be d617 4b3d
00000320: 98d2 fdbd 11ca e2bc 4233 f23b 1f89 51bd
00000330: ec88 a53d c18e 08bd a41e 303e ffb9 033e
00000340: ecc6 39be c76a 05bd e848 e83c ecc5 1fbd
00000350: 3e26 96bd 31d0 28be 192e 1dbd 2229 a9bd
00000360: 8323 d5bc 00a7 2dbd 2106 0fbe cc28 e4bc
00000370: 4b08 1ebe ffe8 5ebe 2c1b 79bd 8dee 53be
00000380: 3a06 04be ad51 5fbe dc12 4ebe ffaa 01be
00000390: a978 4dbd 05cc 91bc f5ed 3ebe da88 4e3d
000003a0: 86fa 4e3d 743f d5bc 875a 98bd 78df a8bd
000003b0: 526e c2bd 7929 4ebe c3bf 7dbc f709 e03b
000003c0: 4151 bdbb 263b 8bbd 1c7e e2bd f4cf 4cbe
000003d0: 8699 b33c 2921 92bb ee31 59be 7dee 133a
000003e0: 03d0 e8bd 0785 8dbd ad48 e7bd e121 82bd
000003f0: 3c7f f6bb 0ec8 dfbc 1aeb 76bd c108 9cbd
-0.005579886 -0.32593036 -0.29502282 0.56257993 -0.8028809 0.1660589 0.39992642 0.071927235
0.031123392 0.22209942 0.31845453 0.09213934 -0.011692828 -0.13860366 0.33230963 0.5529525
0.027489863 -0.35454595 -0.2595814 0.56317776 -0.34740427 0.101498485 0.32341087 -0.063694894
-0.08632213 0.19217616 0.25338975 -0.017476737 0.05047086 -0.15166701 0.24157967 0.6065222
0.04174183 -0.37630495 -0.24971487 0.5373989 -0.42663676 0.056006975 0.28213283 -0.15518929
-0.040331792 0.26517433 0.3201592 0.031559575 -0.032739904 -0.029782625 0.22755234 0.5323015
-0.24212158 -0.21464716 -2.0389888 -1.8481448 0.34141272 0.45132273 0.2808542 0.18942676
-0.31002998 -0.08751271 0.22145166 0.7074191 -0.13573559 0.120452076 -0.36550418 -0.5388559
-0.071969986 -0.18360898 -0.039742764 -0.03762837 -0.14349903 0.032998793 -0.048895884 -0.11475903
-0.19433756 0.05164413 -0.1702906 -0.08877856 -0.0073174494 -0.1858321 -0.030350044 0.05149109
-0.038212404 -0.02614082 -0.18059942 -0.18840387 -0.04789259 0.057141617 -0.042701773 -0.12921493
0.040415257 -0.039611477 0.047224276 -0.20034336 -0.18262689 -0.05874288 -0.023443246 -0.032753702
0.0063106855 -0.14461446 -0.21977109 -0.037025947 0.018410156 0.07315134 -0.09081923 -0.032198686
-0.12637746 -0.019954488 -0.02359344 -0.09519119 0.03916678 -0.026355116 -0.14872882 -0.15885971
-0.105660506 -0.08305677 -0.04234606 0.0061737257 -0.017242074 0.037506618 -0.12753965 -0.021255964
-0.20376116 0.013062763 -0.035427134 -0.028909113 -0.16198261 0.025326442 0.053383216 0.096043386
-0.037121575 -0.07722515 -0.3262716 0.09680907 -1.6102128 -0.37840503 0.24219663 0.21306184
-0.12604327 -0.3681572 -0.11783958 0.04340297 -0.24588235 0.007280763 -0.5005902 -0.3005107
-0.06519368 -0.14092469 -0.43420675 0.116515666 -1.4406594 -0.3683723 0.33764187 0.23658052
-0.2255775 -0.21496902 -0.14209686 -0.044815395 -0.17579357 -0.19904171 -0.3492788 -0.302254
0.04855434 -0.01395016 -0.10327836 0.0019901707 0.747302 0.31759992 0.03972363 0.3876367
0.011483812 0.13255094 0.19391154 0.23260409 0.12807822 0.19428995 -0.033902004 -0.32199425
0.15233105 -0.1068507 0.5109648 0.10873684 2.6979995 0.25600582 -1.144079 -0.699761
-0.108124495 0.53743064 0.26376215 -0.26612827 0.38572785 0.24340478 0.37125167 0.30787012
-0.1561595 -0.1493776 -0.25109756 -0.19160654 0.11812206 -0.003897925 -0.17907095 0.04958328
-0.12393683 -0.027684243 0.0073913643 -0.05115616 0.080827564 -0.033339266 0.17199188 0.1286392
-0.18142289 -0.032572534 0.028355077 -0.039007112 -0.07331513 -0.16485669 -0.03837404 -0.082597986
-0.02601791 -0.04239559 -0.13967182 -0.027851485 -0.15432851 -0.21768568 -0.06081693 -0.20696469
-0.12893 -0.218085 -0.20124382 -0.12662886 -0.0501639 -0.01779748 -0.18645461 0.05042348
0.050531887 -0.026031233 -0.07439142 -0.08245748 -0.09493698 -0.20133008 -0.015487614 0.0068371254
-0.0057775085 -0.06798391 -0.1105921 -0.20001203 0.021923792 -0.0044595194 -0.21210453 0.00056431425
-0.113678 -0.069101386 -0.11293159 -0.06354118 -0.0075224917 -0.027317073 -0.060282804 -0.07618857

layers.0.bias f4 [64]
00000000: e8ff 553f dad6 15be 22ec e03d 3df7 6cbd
00000010: e074 f93d de1d e03e 205b 37be dc0f 1ebe
00000020: 01ba 0b3c 95de 76bd 5695 1bbe f413 a33b
00000030: 353e fb3d 3d16 843e c519 d8bd 1ca1 08be
00000040: 784f 40bc edf5 a7bd 4eaa 1c3f bccd 72bd
00000050: 688a d1bd a9e1 dcb9 90c2 dfbc 82c8 d23c
00000060: b33f 7dbe 83a4 083d 4a19 fbbd bed8 ad3c
00000070: 7eb2 113e 2301 afbd 171f 19be af77 c0be
00000080: da83 9f3e 49dd 223e 0baa 97bc f057 c2bd
00000090: 0792 d9bd f05a f5bc 5ad5 5cbd 7324 653e
000000a0: dcfc 84bd ff67 3bbe c974 273f 8c9e 24be
000000b0: 4109 47bd 2f27 39be 12d7 c5bd 4f98 24be
000000c0: 8842 1ebc b0d9 4fbe f3c8 92bd 8269 353e
000000d0: f46d f5bb 3f5c cc3d 7ea8 1fbe 2358 2d3e
000000e0: d9f6 3bbd 2fdf 24be 9bc8 43bc 37d7 04be
000000f0: e3ab 7ebd 6eb6 513f bb4c 053f ae90 8a3e
0.83593607 -0.1463274 0.10982539 -0.057852972 0.12180495 0.43772787 -0.17905855 -0.15435737
0.0085282335 -0.060270865 -0.15193686 0.004976744 0.122677244 0.25798216 -0.1055179 -0.13342708
-0.011737697 -0.082012035 0.61197364 -0.059278235 -0.10231477 -0.000421298 -0.027314454 0.025730375
-0.2473133 0.033360016 -0.12260683 0.021221515 0.14228246 -0.08545139 -0.14953266 -0.3759131
0.31155282 0.15904726 -0.0185137 -0.09489429 -0.10623556 -0.029950589 -0.053914405 0.22377186
-0.064935416 -0.1830139 0.65412575 -0.16076106 -0.04859281 -0.18081354 -0.09660162 -0.16073726
-0.009659417 -0.20297885 -0.07167234 0.1771603 -0.007489914 0.09978532 -0.15591618 0.16928153
-0.04588971 -0.16100763 -0.011949684 -0.12972723 -0.062175643 0.8191899 0.52070206 0.27063507

layers.1.weight f4 [5, 64]
00000000: 3fc6 493e 2b51 c83c 437a 3e3d a990 8abd
00000010: 16e4 f43d 1456 43bf 0db2 3e3d 2d77 3cbc
00000020: ef4d 28be 2515 b3bd 9e53 183e c891 673e
00000030: bdf0 673e 2cab 0ebe 922f 2dbe 1943 003d
00000040: b111 793d a9ab 9bbc 1eb5 11be 78bd cc3d
00000050: d393 35bd 8697 de3c 44d7 f5bc 4e82 dbbd
00000060: b990 f1be 5d92 73be 984e e2bd 1010 ba3c
00000070: e2e3 45bd 5453 103e 7834 bbbc 1282 aabd
00000080: 72b3 2fbe 930e 05bd dafc 81bb 0150 b2bd
00000090: d826 f43d 0faf f63d fb23 a3bb 64e2 e93d
000000a0: c484 6d3d 1def cb3d e5b1 a9be 59c1 3abe
000000b0: 4775 e0bd 192a 23bd ac78 6a3d 0e21 573c
000000c0: 9c76 2d3d 348c 153d 4d65 47bd 3e0b f13b
000000d0: 5432 253b 0f30 89bd b439 3d3e 1f32 903e
000000e0: 1f22 203e 4f16 f63d e0f4 a5bc c04e 03bd
000000f0: a8fe 4cbe 9b3e 2c3e 8e2b 2f3e 5405 823d
00000100: 645e 4f3e a78a 363b b1d4 913d 2c94 4c3d
00000110: 2ae5 7fbe cff1 313e ce44 d53c ef87 853d
00000120: 5859 5a3d 0381 00be d1bf febd a18f 80be
00000130: 48e4 bdbd 41ff 61be 6772 203e 3c84 67bd
00000140: 7285 a53c 90d9 a63b 7ae5 b43e ca76 54bc
00000150: 9193 b4bc 4f6c 1b3d 9cab 35be 449a 863e
00000160: 5dcf 8b3d 62f6 833d 23d2 493d 641d 1d3c
00000170: 5ff7 f03c 5586 f43d 1f8f 0cbb 8a7d 013f
00000180: e328 8f3e ddd3 86be 2535 aa3c 2907 fc3b
00000190: 7656 92b9 3bc7 b43c 7f0c b73c 2df6 0dbf
000001a0: 5148 a03d ba74 cdbd 03d8 393f 885f 46be
000001b0: f895 573c 0732 bd3d 6de5 0a3e d98f 863d
000001c0: 4658 233d 8936 aabc f064 ce3d 49f7 82bc
000001d0: 64dd 013c 7128 f8bd f810 123e c6c8 c03c
000001e0: 7d7f bd3c 7647 1abe 3f2f a03d 438f 503e
000001f0: aea4 b13d 0566 05bf 86c0 b63d f339 823e
00000200: 2a99 053e 4499 bdbd 05f8 04bd 2111 76bd
00000210: 9481 193e b508 2d3e 691c 5abe ada5 14be
00000220: f576 193c a845 a93e 3cd6 c8bc 7112 90be
00000230: 0cc9 9dbd 4dd3 e33d c32e 4ebe 1820 d2bd
00000240: 89ea 17bd 4994 343c e2d8 90bd b7b1 c7bd
00000250: 589b 1abd a950 233d 9b1f 033e bd79 0bbd
00000260: 4d8d 993c e74e 753e 13d6 a13a 6d12 543e
00000270: a492 88be 66f3 8a3c 5046 9b3c 465e 08be
00000280: ead7 32be 06d9 303e 55be ec3d 6df2 c8bc
00000290: 1d86 2bbe bd1f d4bc 66bf 313d 1f33 fc3d
000002a0: 8a97 4a3d 2034 603b 1509 e7be 140a 2abe
000002b0: e0c7 3e3e 1660 fa3c e819 8dbb 9a46 4abe
000002c0: 0c0c e03c 5283 f43c 6022 78bd 7e3b 1e3e
000002d0: e010 6c3d bb94 783e ed02 583e 45b0 41bd
000002e0: 7f70 b33d e519 d5bd a132 30bd 0c0a 6bbd
000002f0: 9347 6c3d b89b 033e f860 0cbf ecc7 0ebf
00000300: d68a 4ebf 0a1b af3c ecbd 88be 8c1d 34be
00000310: c2de 9c3c 4ab3 4e3e 11ef b13d 947c 343d
00000320: f201 123d e6db b8bd 2633 123c 5b00 69be
00000330: 4cf6 aebd 4237 a23e 7af4 97bd 806e 663b
00000340: 45a2 8c3c 496f 113d 47c6 83be eea3 b53b
00000350: 4ec5 273e 6620 043d 3b18 273e 9ba8 9abd
00000360: 77f1 6e3d 9685 09be 3355 663c a1e8 02bd
00000370: afbb 813e b7b2 e2be 7b5e b03c 3200 e9bd
00000380: d005 46be adb6 25bd f541 1b3e d71b e93d
00000390: e037 c43d b7d4 263b 5726 763c af07 f13d
000003a0: 3b9a 2c3d 6527 03be 0b05 513f fbd3 c83e
000003b0: a4ee d8bd b006 17bc 80a2 443d de27 0f3e
000003c0: b448 c63d 1d0f e9bc a369 59bd c65e 57be
000003d0: 1799 82bc c517 76bc dbb9 05bf dc5e 70be
000003e0: 63cc 8f3d 0401 8b3e 5ef7 d6bc 1d98 f1bd
000003f0: 7fa4 9bbc 90e0 313e 2436 c03d 4c9d b23d
0.19704531 0.024452766 0.046503317 -0.06765873 0.119575664 -0.7630322 0.04655652 -0.011503023
-0.1643598 -0.087442674 0.14875647 0.22614205 0.22650428 -0.13932484 -0.16912678 0.03131399
0.060807887 -0.019002752 -0.14229247 0.09997076 -0.04433043 0.027171861 -0.030009873 -0.10718213
-0.47180727 -0.23786302 -0.11050147 0.022712737 -0.04831303 0.14094287 -0.022852167 -0.0832559
-0.17158297 -0.032484602 -0.00396691 -0.08706666 0.11921471 0.120451085 -0.0049786544 0.11420134
0.057987943 0.099577166 -0.33143535 -0.18237819 -0.10959869 -0.03983507 0.057243988 0.013130439
0.042349443 0.03651066 -0.048680592 0.0073560765 0.0025207 -0.066986196 0.18479043 0.2816324
0.15638016 0.12015974 -0.020258367 -0.032057524 -0.20019019 0.16820757 0.17106459 0.063486725
0.20250851 0.002785364 0.07120646 0.049945995 -0.24989763 0.17377399 0.026033785 0.06520068
0.05330786 -0.12549214 -0.1243893 -0.2510958 -0.09272057 -0.22070028 0.15668641 -0.056522593
0.020205233 0.0050918534 0.35331327 -0.012967775 -0.022043021 0.037945088 -0.17741245 0.2628957
0.06826661 0.06443478 0.049272668 0.009589527 0.02941483 0.11939684 -0.0021447612 0.5058218
0.27960882 -0.26333514 0.020777294 0.0076912832 -0.00027911708 0.022067657 0.022344826 -0.5545376
0.07826293 -0.100320294 0.7259523 -0.1937238 0.013158314 0.092380576 0.13564081 0.065704055
0.039879106 -0.020777958 0.10077846 -0.015987055 0.007926319 -0.121170886 0.14264286 0.023533236
0.02313208 -0.15066323 0.078215115 0.2036715 0.08673988 -0.52108794 0.0892344 0.25434837
0.13046709 -0.09257749 -0.032463092 -0.06007493 0.14990836 0.16897853 -0.212999 -0.14516325
0.0093667405 0.33060956 -0.024516217 -0.2813907 -0.07704362 0.11124287 -0.20135026 -0.10260028
-0.037088905 0.011021682 -0.07072617 -0.09750693 -0.037745804 0.039871845 0.12805025 -0.034051646
0.018744135 0.2395588 0.0012347124 0.20710154 -0.26674378 0.016961765 0.018954426 -0.13317212
-0.17465177 0.17270288 0.115597405 -0.02452966 -0.16750379 -0.02589404 0.043395422 0.12314438
0.049460925 0.0034210756 -0.45124117 -0.16605407 0.18630934 0.030563395 -0.004306067 -0.19753495
0.027349494 0.029847775 -0.060579658 0.15452382 0.05763328 0.24275486 0.21094866 -0.047287244
0.08761691 -0.104053296 -0.043017033 -0.05738263 0.057685446 0.1285237 -0.5483546 -0.55773807
-0.80680597 0.021375198 -0.267074 -0.17589396 0.019149188 0.20185581 0.086881764 0.04406412
0.035646386 -0.09026317 0.008923328 -0.22754042 -0.08543071 0.31682783 -0.07419677 0.0035161078
0.01716722 0.03550652 -0.2573721 0.0055432236 0.1638386 0.03225746 0.16317837 -0.0755169
0.058335748 -0.13429865 0.014058399 -0.031960133 0.25338504 -0.44276974 0.021529427 -0.113769904
-0.19338155 -0.040457416 0.1516188 0.11382263 0.0958097 0.0025456378 0.015023789 0.11769044
0.042139273 -0.12807997 0.8164832 0.39224228 -0.10592392 -0.009217903 0.048006535 0.13980052
0.09681836 -0.02844959 -0.05307926 -0.21032247 -0.01594214 -0.015020316 -0.5223672 -0.23473686
0.070214055 0.27149212 -0.026241 -0.117965914 -0.018999336 0.1737082 0.093853265 0.08721408

layers.1.bias f4 [5]
00000000: 6c24 9c3c 9add 30be d0ca 363d 7022 973d
00000010: ed48 0ebf
0.019060336 -0.17272034 0.04462701 0.07379615 -0.55580026
