src/bread/tests/saved_models/best_model_on_external_seed0_[64, 64, 5]_lr0.01_b256_.pth (torch, 19423 bytes, 4 tensors)

layers.0.weight f4 [64, 64]
-0.06924939 -0.0013225975 -0.1648942 -0.1593996 -0.119098775 -0.038209442 -0.07439374 0.026626807
-0.08228384 -0.043329492 -0.11020369 -0.09238052 -0.18900266 -0.15401325 -0.10610992 -0.049758386
-0.017395863 0.0061578853 -0.115384094 -0.11312512 -0.030045468 0.030923862 -0.0971938 0.020958427
-0.09306365 -0.061284076 0.04096471 -0.18532938 -0.14970213 -0.103926964 -0.1121578 0.048797395
-0.14412828 -0.13126417 -0.15985265 -0.19063361 -0.14446679 0.031988483 -0.021028314 -0.01601761
-0.06742538 -0.14338373 -0.058036186 -0.19536205 -0.17015772 -0.1428589 0.09206531 0.09842443
-0.12351991 -0.07865875 0.0048212577 0.04983808 -0.021939317 -0.05815934 0.0063603083 -0.14775215
-0.055890936 -0.17055066 -0.1578992 -0.13377218 -0.014223797 -0.020926548 -0.002443783 0.1054093
0.09345787 -0.1985727 0.069722384 0.031425353 1.6903347 0.6655669 -0.27215233 0.12701873
0.278294 0.45358896 0.2989006 0.11206447 0.13954763 0.032527424 -0.052048035 -0.12068975
-0.17257 0.17950794 -0.18894693 0.07184877 -2.1794212 -0.735621 0.34773827 -0.15059519
-0.3360493 -0.24338044 -0.061137605 -0.037464254 -0.04124917 -0.06855532 -0.0034080308 -0.019964004
0.10435381 -0.008162366 -0.046379182 0.0044164965 1.0063503 0.44371566 -0.028235083 0.10887655
0.113446094 0.1627616 0.0487476 0.044934526 0.16807696 0.11900685 0.048814524 0.14730684
-0.037150092 0.13084614 -0.0009627842 -0.050377905 -0.15570784 -0.045399096 -0.0096342545 -0.018429311
0.010049567 -0.029921308 -0.12675695 -0.05798929 -0.19180131 -0.16628045 -0.123329364 -0.19424497
-0.13565883 -0.23366305 0.92930263 0.16765727 2.7425444 0.55002147 -0.5689457 -0.27342233
0.24205688 0.3217562 0.13233869 0.060225192 0.27607116 0.31832692 -0.13200583 -0.17693968
-0.054765053 -0.033619698 -0.28887475 0.12453696 -1.5836352 -0.36949083 0.33177218 -0.009187802
0.15270662 -0.36886847 -0.21064532 -0.22424103 -0.3189913 -0.250669 -0.56874615 -0.64441055
-0.029355621 -0.049453177 -0.24312168 -0.006747938 -0.061039846 0.011882398 -0.023532044 0.053303257
0.052810643 -0.18896097 0.13451031 0.21030955 0.07719576 0.17052393 -0.5854373 -0.47470078
-0.02544822 -0.074374914 -0.163447 0.020495271 -0.49592218 -0.16699326 0.15681408 -0.0036178278
0.17472512 -0.15387855 -0.057994526 0.13524537 -0.20860773 0.17187741 -0.49619183 -0.47244745
-0.14197202 -0.052060224 -0.14345153 -0.13241766 -0.05891297 -0.026436593 -0.1700765 -0.0722329
-0.0686581 0.03857455 -0.15467976 -0.16497228 -0.14201674 0.029349815 -0.018960802 0.14891951
-0.021929005 -0.06751604 -0.036030658 -0.06785953 -0.06134128 -0.110424206 -0.0839887 -0.06301769
-0.17873648 -0.115598135 0.03531939 -0.18066593 -0.090277724 0.06537761 -0.07558113 -0.11630841
-0.11705008 0.026364751 -0.14526838 -0.10978883 -0.03498712 -0.07480781 -0.07569182 0.046998005
-0.043750066 0.060211197 0.010497781 -0.15910317 0.013021109 -0.16962774 0.05861891 0.14025503
0.027131837 0.072670154 -0.12060578 -0.07312577 -0.0024863672 -0.19172 0.01809277 -0.17408517
-0.06818716 -0.08440049 -0.13569169 -0.06196312 0.03303319 -0.10548614 -0.14565217 -0.12046604
00000000: a0d2 8dbd 025b adba 06da 28be a639 23be
00000010: 0fea f3bd 8181 1cbd bf5b 98bd 7620 da3c
00000020: 6e84 a8bd 447a 31bd 79b2 e1bd 0032 bdbd
00000030: ea89 41be a6b5 1dbe 2850 d9bd 73cf 4bbd
00000040: c581 8ebc 16c8 c93b 7f4e ecbd 25ae e7bd
00000050: ea21 f6bc 0a54 fd3c 8b0d c7bd 02b1 ab3c
00000060: 2898 bebd 0305 7bbd 9dca 273d fcc6 3dbe
00000070: 844b 19be a9d7 d4bd fdb2 e5bd c7df 473d
00000080: 5d96 13be 1d6a 06be 6ab0 23be 7535 43be
00000090: 1aef 13be 5b06 033d 9243 acbc 5d37 83bc
000000a0: 5116 8abd 2fd3 12be 5ab7 6dbd fd0c 48be
000000b0: d33d 2ebe 9a49 12be bd8c bc3d bf92 c93d
000000c0: 02f8 fcbd d717 a1bd a4fb 9d3b 0423 4c3d
000000d0: 15ba b3bc 7d38 6ebd 226a d03b 574c 17be
000000e0: e5ed 64bd d5a4 2ebe 54b0 21be 93fb 08be
000000f0: ee0a 69bc 276e abbc e027 20bb d5e0 d73d
00000100: d766 bf3d a456 4bbe 9cca 8e3d dfb7 003d
00000110: e35c d83f 9862 2a3f 8d57 8bbe 3311 023e
00000120: 8d7c 8e3e d03c e83e 8009 993e 0f82 e53d
00000130: 93e5 0e3e 7a3b 053d 5230 55bd 302c f7bd
00000140: 31b6 30be eed0 373e 4e7b 41be 7325 933d
00000150: a37b 0bc0 a851 3cbf c00a b23e a035 1abe
00000160: a70e acbe b938 79be 6d6b 7abd 1e74 19bd
00000170: e4f4 28bd bb66 8cbd 4559 5fbb 8d8b a3bc
00000180: 73b7 d53d 72bb 05bc 19f8 3dbd 42b8 903b
00000190: 16d0 803f b32e e33e 434d e7bc abfa de3d
000001a0: 6d56 e83d faaa 263e 90ab 473d 440d 383d
000001b0: 5e1c 2c3e ddb9 f33d bdf1 473d 9bd7 163e
000001c0: b22a 18bd 88fc 053e 5b63 7cba 1059 4ebd
000001d0: e071 1fbe 67f4 39bd fed8 1dbc 11f9 96bc
000001e0: f0a6 243c 881d f5bc 93cc 01be 2e86 6dbd
000001f0: 9067 44be 6c45 2abe 1b94 fcbd 27e8 46be
00000200: 26ea 0abe 5e45 6fbe c7e6 6d3f 59ae 2b3e
00000210: d985 2f40 35ce 0c3f 6da6 11bf 03fe 8bbe
00000220: c2dd 773e 3bbd a43e cb83 073e b1ae 763d
00000230: 3359 8d3e bffb a23e 892c 07be ad2f 35be
00000240: 5251 60bd cfb4 09bd 64e7 93be 3c0d ff3d
00000250: 8fb4 cabf e72d bdbe 0bde a93e 6f88 16bc
00000260: 205f 1c3e 54dc bcbe 68b3 57be 719f 65be
00000270: d452 a3be b057 80be 5999 11bf 17f8 24bf
00000280: 337b f0bc 6a8f 4abd e4f4 78be cf1d ddbb
00000290: eb04 7abd 64ae 423c 46c6 c0bc 8454 5a3d
000002a0: f94f 583d fc7e 41be 12bd 093e 635b 573e
000002b0: d018 9e3d d39d 2e3e 38df 15bf fb0b f3be
000002c0: c978 d0bc e051 98bd a65e 27be b3e5 a73c
000002d0: 83e9 fdbe 4800 2bbe df93 203e 1419 6dbb
000002e0: 24eb 323e 5792 1dbe ab8b 6dbd c37d 0a3e
000002f0: 449d 55be a200 303e db0c febe a2e4 f1be
00000300: 1d61 11be 1a3d 55bd f5e4 12be 7f98 07be
00000310: ba4e 71bd 8e91 d8bc 8928 2ebe d8ee 93bd
00000320: 9e9c 8cbd 5900 1e3d 5f64 1ebe 7eee 28be
00000330: d66c 11be 066f f03c af53 9bbc 5b7e 183e
00000340: 75a4 b3bc d945 8abd e294 13bd f0f9 8abd
00000350: fe40 7bbd 1626 e2bd 4402 acbd 6b0f 81bd
00000360: b206 37be b7be ecbd 11ab 103d 7d00 39be
00000370: 87e3 b8bd b2e4 853d 48ca 9abd 1b33 eebd
00000380: f4b7 efbd e4fa d73c 3cc1 14be f7d8 e0bd
00000390: a84e 0fbd d634 99bd 5004 9bbd fb80 403d
000003a0: 4533 33bd 04a0 763d e3fe 2b3c f1eb 22be
000003b0: 7d56 553c e5b2 2dbe 621a 703d 049f 0f3e
000003c0: 9643 de3c 17d4 943d 2a00 f7bd f7c2 95bd
000003d0: 52f2 22bb 3f52 44be 4a37 943c 6243 32be
000003e0: b6a5 8bbd 2ada acbd c3f2 0abe 0acd 7dbd
000003f0: cf4d 073d 1e09 d8bd d825 15be e6b6 f6bd

layers.0.bias f4 [64]
0.017912576 0.015731743 -0.14454328 -0.002155964 -0.011933424 -0.057894506 0.23253727 -0.12426671
-0.0108156875 -0.033448182 -0.027722368 -0.022664303 -0.0942426 -0.17399311 -0.18303256 -0.11560008
-0.17022687 0.029341945 0.027741881 0.068448894 -0.090923466 0.05327896 -0.08237609 0.11212145
-0.017195364 0.05514014 0.19825749 0.069468334 -0.08984626 -0.035849024 -0.17656386 -0.0757541
0.1854681 -0.058652606 -7.587776e-05 -0.08228089 -0.10610928 0.2527567 0.015023774 0.1334161
-0.17633797 -0.04777969 -0.029103681 -0.04463976 -0.039858572 0.32890382 0.32632682 -0.09121814
0.19300985 0.0361719 0.21137387 0.47707292 0.052355766 -0.21305527 -0.11336261 0.37512362
-0.08062975 0.19103022 -0.11081558 0.014275034 -0.12823792 -0.16773029 0.19387442 -0.064002655
00000000: 65bd 923c dbdf 803c 2703 14be 134b 0dbb
00000010: 6884 43bc ca22 6dbd 401e 6e3e 8b7f febd
00000020: 4834 31bc f600 09bd 051a e3bc 7daa b9bc
00000030: 4402 c1bd 402b 32be e36c 3bbe bcbf ecbd
00000040: f44f 2ebe 855e f03c f142 e33c ef2e 8c3d
00000050: 1536 babd 0a3b 5a3d ccb4 a8bd ee9f e53d
00000060: 4bdd 8cbc a1da 613d 0304 4b3e 6a45 8e3d
00000070: 5101 b8bd 6dd6 12bd 28cd 34be f724 9bbd
00000080: 59eb 3d3e b73d 70bd 9020 9fb8 e282 a8bd
00000090: d24f d9bd 5469 813e 4626 763c 3b9e 083e
000000a0: f191 34be a3b4 43bd d86a eebc 2ed8 36bd
000000b0: be42 23bd 1566 a83e 4f14 a73e 94d0 babd
000000c0: 60a4 453e fc28 143d 6472 583e e742 f43e
000000d0: 0073 563d 292b 5abe a82a e8bd 3410 c03e
000000e0: 3621 a5bd 6d9d 433e 47f3 e2bd d5e1 693c
000000f0: cd50 03be 7dc1 2bbe 0487 463e d313 83bd

layers.1.weight f4 [5, 64]
-0.07526408 -0.025136203 -0.37867382 0.08725218 0.048787426 0.018896993 0.056472305 -0.034565806
0.13295399 0.15012695 0.09074492 0.0030153396 0.37246373 0.120437175 0.087907605 0.084200226
0.085063875 0.0499088 0.089926854 0.0042166654 -0.039204575 0.15245037 -0.18269102 -0.14280508
-0.0358798 -0.1018814 0.13084549 -0.48512197 0.006252848 -0.19531555 0.19369781 -0.0073792394
0.23667234 0.21659565 -0.18959968 -0.055111986 0.0015278911 0.092878655 -0.010612029 -0.25860256
0.060584605 0.07018701 -0.07685161 0.05736922 0.022155566 0.22311169 0.19319722 -0.1523396
0.028289955 0.012417207 -0.032747533 -0.8244614 0.057034146 0.011677729 0.030255642 -0.31754732
0.043787885 -0.028790845 0.15995547 0.16888028 0.038216505 0.27251786 0.027668042 -0.010091364
-0.02983107 0.17933434 0.18496624 -0.0070491196 -0.028392538 0.012464734 0.026547136 -0.12376931
0.18273531 0.12212468 -0.09007362 -0.10863389 -0.15962481 0.14733237 0.043760538 -0.19208537
0.043882042 -0.0753583 0.074143454 0.1777101 -0.16920494 0.04159331 0.03509248 -0.07384933
-0.09875969 0.023574306 0.19063778 0.029357772 -0.044730943 -0.053276706 -0.15984778 -0.023085598
-0.4064862 0.0047980538 0.19307828 0.01570922 -0.013911192 -0.74281335 0.119877785 -0.19555855
-0.118239 0.082935266 -0.02318056 -0.08100551 -0.06410523 0.08128758 0.0026354329 0.09144406
0.1656329 0.15249437 0.054404967 0.056642447 -0.051463246 -0.029027257 0.12602614 0.24512304
-0.06639243 0.23295404 -0.5149446 -0.076827824 0.10149521 -0.043153334 0.2033581 0.07912129
-0.01910353 0.015998555 0.1862676 0.053063504 -0.039231397 0.012446244 0.25208205 0.14453259
-0.3965795 0.17128298 0.10024376 0.09934536 -0.11254503 -0.5225266 -0.113377295 0.15297623
-0.055910595 -0.079453655 0.08138797 -0.025447764 0.19533028 -0.025753686 -0.06805308 0.42411792
-0.018504193 -0.16448072 -0.47103134 0.052432735 0.007443944 0.14630716 -0.18469174 0.076125026
0.19204096 0.1678281 0.09277217 -0.0715684 -0.020481963 0.13554992 0.08239305 -0.21004339
0.06763054 -0.031459294 -0.031386055 0.12510906 -0.07853334 0.11627445 -0.5559905 0.16858077
-0.30902103 0.16275798 -0.6314304 0.112696126 0.07027912 0.0029093265 -0.014096443 -0.12284674
-0.08076525 -0.039045732 0.19244963 -0.052564643 -0.032411497 -0.0902907 -0.060274925 -0.028909257
0.01018461 0.040275455 0.18205346 -0.03972853 -0.13811159 0.07179452 -0.47833842 -0.026189346
0.06865281 -0.39122412 0.08805346 0.031697653 -0.042037282 0.074050225 0.055359818 0.109498054
0.020972038 0.04789524 -0.20780067 0.14795665 0.15280303 -0.16983287 -0.11403237 -0.03834429
0.019175446 0.30431455 0.13996564 0.1111222 0.11121142 0.050550595 0.15307248 -0.007910869
0.104804195 -0.23442774 -0.2020694 0.04125969 -0.056187194 0.09759725 0.0682125 0.31563056
-0.10963763 0.052728508 0.12620312 0.042249534 -0.020816036 -0.71931607 0.047610175 0.0022740965
-0.14155811 -0.07640788 0.2389197 0.08102237 0.03985291 0.08544712 -0.14590536 -0.042443905
-0.12691969 -0.41034642 0.14292845 -0.041747868 -0.10695233 -0.07111182 -0.15297486 -0.019109715
00000000: 0e24 9abd 70ea cdbc 89e1 c1be 45b1 b23d
00000010: 53d5 473d decd 9a3c 814f 673d e094 0dbd
00000020: 1725 083e e1ba 193e 79d8 b93d 019d 453b
00000030: 91b3 be3e c4a7 f63d e708 b43d 2b71 ac3d
00000040: f835 ae3d 2b6d 4c3d 922b b83d f42b 8a3b
00000050: fa94 20bd f31b 1c3e 5b13 3bbe 7f3b 12be
00000060: b2f6 12bd 32a7 d0bd 5cfc 053e e861 f8be
00000070: b1e4 cc3b cd00 48be b858 463e 8ccd f1bb
00000080: 3c5a 723e 40cb 5d3e 6b26 42be 1bbd 61bd
00000090: 8543 c83a 2a37 be3d 13de 2dbc 8e67 84be
000000a0: 9027 783d 35be 8f3d 6064 9dbd fdfb 6a3d
000000b0: 977f b53c 6477 643e 7ed5 453e e9fe 1bbe
000000c0: 56c0 e73c 8a71 4b3c 4722 06bd e70f 53bf
000000d0: a39c 693d f253 3f3c aeda f73c 9095 a2be
000000e0: ed5a 333d c7da ebbc 5ecb 233e f4ee 2c3e
000000f0: e988 1c3d 7687 8b3e 17a8 e23c 4056 25bc
00000100: 4a60 f4bc 6ca3 373e ca67 3d3e 4dfc e6bb
00000110: 7897 e8bc e238 4c3c 6179 d93c c47a fdbd
00000120: f71e 3b3e 811c fa3d 8578 b8bd 727b debd
00000130: b074 23be 4cde 163e 403e 333d 07b2 44be
00000140: a8bd 333d 7455 9abd 86d8 973d a3f9 353e
00000150: 0f44 2dbe bf5d 2a3d 22bd 0f3d 513e 97bd
00000160: 8542 cabd e71e c13c 8d36 433e b67f f03c
00000170: cb37 37bd ad38 5abd 23af 23be 021e bdbc
00000180: f61e d0be fe38 9d3b 50b6 453e 9fb0 803c
00000190: c5eb 63bc 0429 3ebf 7c82 f53d 8040 48be
000001a0: 4a27 f2bd f7d9 a93d 28e5 bdbc 38e6 a5bd
000001b0: 9a49 83bd 1a7a a63d 3ab7 2c3b 0647 bb3d
000001c0: ac9b 293e 7c27 1c3e bed7 5e3d e901 683d
000001d0: 20cb 52bd 92ca edbc ff0c 013e 8901 7b3e
000001e0: c1f8 87bd 818b 6e3e 69d3 03bf e857 9dbd
000001f0: b8dc cf3d 8dc1 30bd 1b3d 503e 580a a23d
00000200: 027f 9cbc 670f 833c efbc 3e3e 1e59 593d
00000210: 1ab1 20bd 55eb 4b3c e610 813e 5a00 143e
00000220: 780c cbbe ce64 2f3e 9a4c cd3d 9575 cb3d
00000230: 027e e6bd 4ec4 05bf 5b32 e8bd cda5 1c3e
00000240: 8202 65bd 99b8 a2bd bcae a63d d477 d0bc
00000250: a904 483e 65f9 d2bc 6a5f 8bbd fc25 d93e
00000260: 1b96 97bc a26d 28be 052b f1be b5c3 563d
00000270: 54ec f33b 8bd1 153e d51f 3dbe 70e7 9b3d
00000280: 63a6 443e 21db 2b3e 56ff bd3d 7492 92bd
00000290: cac9 a7bc 99cd 0a3e b0bd a83d 9d15 57be
000002a0: e181 8a3d 76db 00bd aa8e 00bd 971c 003e
000002b0: 16d6 a0bd 4d21 ee3d 6555 0ebf 70a0 2c3e
000002c0: 0138 9ebe 07aa 263e 6ca5 21bf 3acd e63d
000002d0: 80ee 8f3d 66aa 3e3b c4f4 66bc 1297 fbbd
000002e0: 4068 a5bd 6bee 1fbd 8411 453e 064e 57bd
000002f0: ebc1 04bd 55ea b8bd d7e2 76bd 1bd3 ecbc
00000300: 5add 263c e0f7 243d 396c 3a3e 62ba 22bd
00000310: 206d 0dbe 0109 933d c6e8 f4be 0a8b d6bc
00000320: d899 8c3d 874e c8be 5f55 b43d 66d5 013d
00000330: 492f 2cbd a5a7 973d fac0 623d 8440 e03d
00000340: 8dcd ab3c cd2d 443d b3c9 54be f381 173e
00000350: 6678 1c3e abe8 2dbe ce89 e9bd e70e 1dbd
00000360: d315 9d3c 1ecf 9b3e 2753 0f3e 0994 e33d
00000370: d0c2 e33d 240e 4f3d 08bf 1c3e 979c 01bc
00000380: 95a3 d63d d30d 70be 48eb 4ebe ecff 283d
00000390: 8b24 66bd 11e1 c73d ffb2 8b3d 549a a13e
000003a0: b289 e0bd d9f9 573d 643b 013e d90d 2d3d
000003b0: 6486 aabc 1925 38bf e302 433d 0209 153b
000003c0: 9cf4 10be bc7b 9cbd 5ea7 743e 0eef a53d
000003d0: ce3c 233d e6fe ae3d 3768 15be a9d9 2dbd
000003e0: 3cf7 01be ed18 d2be d65b 123e d0ff 2abd
000003f0: d309 dbbd 13a3 91bd 71a5 1cbe fa8b 9cbc

layers.1.bias f4 [5]
0.08072057 -0.047515 -0.025633324 -0.035888247 -0.10996142
00000000: d450 a53d 179f 42bd fafc d1bc 8eff 12bd
00000010: 7433 e1bd
