src/bread/tests/saved_models/best_model_on_internal_seed2_[64, 64, 5]_lr0.01_b256_.pth (torch, 19423 bytes, 4 tensors)

layers.0.weight f4 [64, 64]
000000 7c 71 84 bd 0b 22 1c bb 9e 21 2f be 25 e4 22 be
       -0.06466958 -0.0023824002 -0.17102668 -0.15907343
000010 d6 9b f1 bd 74 a1 0d bd 89 62 8d bd 47 d4 08 3d
       -0.117973015 -0.0345778 -0.0690356 0.03340557
000020 c1 24 a2 bd d0 0b 05 bd 05 14 d4 bd 93 e8 b9 bd
       -0.079171665 -0.03248197 -0.10355381 -0.09077563
000030 18 9f 3c be 8a 78 17 be 72 43 ea bd db 27 7c bd
       -0.18420064 -0.14792076 -0.114386454 -0.061561447
000040 60 56 65 bc a6 8e ab 3b 98 0f 8d bd 40 6a c7 bd
       -0.013997644 0.005235511 -0.0688774 -0.097370625
000050 fa c5 ca bc 9b a3 0d 3d 1f ab c1 bd f0 cf bc 3c
       -0.024752606 0.034579854 -0.09456467 0.023048371
000060 85 61 b7 bd a0 41 62 bd 2b be 3a 3d 09 ed 3a be
       -0.08954147 -0.055238366 0.045591515 -0.18254484
000070 65 29 14 be 02 be cd bd 78 05 d9 bd b4 27 5b 3d
       -0.14468916 -0.10046007 -0.10596746 0.05350466
000080 f0 42 14 be 1d ba fc bd 8f 4a 1d be f4 76 3b be
       -0.1447866 -0.12340186 -0.15360473 -0.18307096
000090 b6 b3 0b be 78 61 2a 3d 27 34 3b bc fb 04 bd bb
       -0.13642773 0.04159686 -0.011426008 -0.005768416
0000a0 c9 69 73 bd 56 5f 08 be b7 f9 3f bd 55 16 3c be
       -0.059427056 -0.13317618 -0.046869006 -0.18367894
0000b0 ad 83 22 be 56 de 07 be 4f f5 15 3e f0 46 11 3e
       -0.15870543 -0.13268408 0.14644359 0.14187217
0000c0 84 69 f9 bd 0f 5f a2 bd 16 4a 96 3b 99 d5 56 3d
       -0.12178329 -0.07928287 0.0045864685 0.052449796
0000d0 ca 07 c9 bc 8f f3 59 bd 2f 99 85 3c e9 4e 11 be
       -0.024539847 -0.05321079 0.016308395 -0.14190258
0000e0 66 97 3e bd 5f 85 27 be b1 da 1b be da 98 03 be
       -0.046531104 -0.16359471 -0.15220143 -0.12851277
0000f0 8b ca 24 bc 1f 90 5d bc 60 91 31 bd 7e 7b 09 3d
       -0.010058056 -0.013523131 -0.04335153 0.033565037
000100 4e 69 26 3e 59 1d 1f be 77 73 3d bd e6 5c 5e bf
       0.16251108 -0.15538539 -0.046252694 -0.868605
000110 93 b5 96 3f 1f 49 8c 3e 6b c3 e2 be 73 50 83 bc
       1.1774162 0.27399537 -0.44289717 -0.016029572
000120 6b 31 a4 bc ff 63 ab be b7 1e 4e be dd ce b6 3d
       -0.020043096 -0.33474728 -0.20128904 0.08926175
000130 c9 50 db 3c 44 3b c9 be 18 28 1e 3f bf ed e2 3e
       0.02677192 -0.3930303 0.6177993 0.4432201
000140 0d ef e8 be d8 22 73 be e7 94 a7 be 1a 10 12 3f
       -0.4549488 -0.2374376 -0.3273079 0.5705582
000150 31 1e 28 c0 9e 27 21 bf 18 85 10 3f b9 4f e3 bd
       -2.6268427 -0.62951076 0.56453085 -0.1109919
000160 3a 1e 63 be f5 8d 03 3f ce c9 11 3e 80 40 e0 3b
       -0.221795 0.51388484 0.14237139 0.0068436265
000170 ef 1a 66 3e 07 6c 18 3f cc 18 9b bf f7 72 b9 bf
       0.22471212 0.59539837 -1.2116942 -1.448821
000180 9a 40 11 3e e0 d0 37 3d ef af 9b 3c f0 51 15 bf
       0.141848 0.044876933 0.01900479 -0.5832815
000190 13 a1 d5 3f c6 29 97 3e 9e 63 07 bf 27 f9 6a 3d
       1.6689781 0.29524058 -0.5288638 0.057366516
0001a0 f2 bc 23 be d3 22 73 be 94 76 8d be 49 19 bd bd
       -0.15990046 -0.23743753 -0.2762953 -0.092333384
0001b0 52 0a 93 bc 41 d9 2c be ee 07 ba 3e 3e f0 03 3f
       -0.017949257 -0.16879751 0.36334175 0.51538455
0001c0 b0 60 d2 3d 81 ee 4d 3e 85 c3 0a bc 45 e4 ea be
       0.10272348 0.20110513 -0.008469467 -0.4587728
0001d0 d3 46 4b 3f fb 37 c1 3d 9b 44 88 be 70 6d a4 3d
       0.79404944 0.094345056 -0.26614842 0.08028686
0001e0 c8 88 5d bd ec f5 21 be 9a 1a 3e be cb b1 53 3d
       -0.054085523 -0.15816468 -0.18564835 0.05168323
0001f0 53 c9 99 3d bd 3f 00 be c2 c5 0e 3f 6a e6 0d 3f
       0.07509103 -0.12524314 0.55770504 0.5542971
000200 ef a6 c6 bd 5b 00 a4 be d3 4f 53 3e dc 43 36 3d
       -0.09699809 -0.3203152 0.2063592 0.04449831
000210 09 35 1b 40 78 ec 11 3f 6c b6 c2 be e1 44 a9 bd
       2.425112 0.5700145 -0.38029802 -0.08265091
000220 bc 46 8f 3e f8 c2 f5 3d a3 a7 50 3d 43 21 2f bb
       0.27983654 0.12000078 0.05094112 -0.0026722706
000230 cb 8c 5b 3e bf 2e af 3e 70 8f 79 be 9e 5f 19 be
       0.21440427 0.34215352 -0.24371123 -0.14977881
000240 de bd f3 3d 0e 82 b6 be 92 02 19 bf 9c a3 60 3e
       0.11901449 -0.356461 -0.59769547 0.21937412
000250 13 f9 2f c0 42 ab f0 be da db 2e 3f 43 60 10 bd
       -2.7495773 -0.4700566 0.68304217 -0.035248052
000260 8e 99 41 3e 49 b0 b9 be b5 5d 41 be 30 2e 7f be
       0.18906233 -0.36267307 -0.18883403 -0.24919963
000270 9d d1 5c bf 48 56 d0 be 3d 7d 89 bf 1d cd d2 bf
       -0.86257344 -0.40690827 -1.0741345 -1.6468846
000280 1b df 9e bd fa ea 59 be 58 32 da 3c 1e a4 f5 3d
       -0.07757398 -0.21281043 0.026635334 0.119941935
000290 92 7e 52 3f 06 f9 70 3e a2 f0 0d be 16 14 04 bc
       0.8222438 0.23532495 -0.13861325 -0.0080614295
0002a0 80 d7 d9 3d 77 e9 25 be f8 31 b2 3d 1b 75 dc 3d
       0.106368065 -0.16202341 0.08700937 0.107645236
0002b0 f8 d1 1a 3e 75 72 df 3d 63 5c 30 be 1b a8 55 3e
       0.15119159 0.10910503 -0.17222743 0.20864908
0002c0 50 93 ef bd 5e c9 8c be d9 7b 74 bd 50 5e 53 3e
       -0.116980195 -0.2749738 -0.059688423 0.20641446
0002d0 30 3f 7d 3d de 7c 2b 3d 31 da 47 3e 71 d8 2b 3d
       0.06182784 0.04186713 0.19516827 0.04195446
0002e0 ce 7e 49 3e cd 26 07 be 6f dc 4d 3d a1 68 a9 3e
       0.19677278 -0.13198395 0.05025905 0.33087638
0002f0 58 95 98 bd 9d 0a a2 3e 71 b5 c4 be 1c 73 1a be
       -0.0745036 0.31648722 -0.3841968 -0.15082973
000300 31 c9 4b be fe ec 07 be c6 2a d8 be 4f e1 a2 be
       -0.19900967 -0.13273999 -0.42220134 -0.31812522
000310 0b 0e 13 3e 50 65 6a 3d 6f f2 3f be 0a 22 1a 3d
       0.14360826 0.057225525 -0.18744825 0.03763012
000320 97 f0 01 3d fa 3d ea 3c 5d 84 24 be c8 65 fe bd
       0.031723585 0.028594006 -0.16066118 -0.12421757
000330 7d ce 08 be 51 7a b9 3d 78 6c 50 be 65 2c 33 bf
       -0.13360019 0.09056533 -0.20353878 -0.69989616
000340 7a 23 c5 bd 62 f9 6b bd 71 e7 b6 3d e9 d4 86 3b
       -0.09625907 -0.057610877 0.08930863 0.0041147363
000350 c4 d5 78 3d ab 01 8d bd d7 15 cf bd 86 9d 3e bc
       0.060750738 -0.06885084 -0.101115875 -0.011634236
000360 a3 c5 1d be bb c8 0d 3e ba bd 21 3e cc 74 62 be
       -0.15407424 0.13846104 0.15795031 -0.22114867
000370 8b b7 db 3d 95 7e 99 3d 77 85 e9 3e 1c ec 89 3f
       0.107283674 0.07494847 0.45609638 1.077518
000380 c4 36 df bd 06 f2 26 3c 5a 7b cf be cb dd a0 be
       -0.108991176 0.010189539 -0.40523797 -0.31419215
000390 1e 3c 05 3e 61 7f e5 3c 98 47 9d bc e2 12 35 3e
       0.13011214 0.02801484 -0.019199178 0.17682984
0003a0 d8 05 96 3d d1 9a 95 3d 25 06 c4 3b 5f 2d 41 be
       0.07325333 0.073049195 0.005982178 -0.18864964
0003b0 83 fd 40 bd 75 23 11 be e8 18 05 be a3 f9 8d be
       -0.047116768 -0.14173682 -0.12997782 -0.2772952
0003c0 e4 37 f5 bd 66 9c a3 3d 2e b0 b6 be ee 90 ae be
       -0.11973551 0.07988815 -0.3568129 -0.34094948
0003d0 d8 bd c4 3d 59 00 4b be ef b5 38 bd d6 10 fe bd
       0.09606522 -0.19824351 -0.04509538 -0.12405555
0003e0 41 9d 85 bd d8 ea 9e bd 55 a5 29 be 56 08 dd bd
       -0.065241344 -0.07759637 -0.16566975 -0.107926056
0003f0 24 8f 46 bd d9 8a 7a bd 8e bf 00 bf 37 01 2c bf
       -0.048476353 -0.06116757 -0.5029229 -0.67189354

layers.0.bias f4 [64]
000000 c2 b0 c6 3c a6 a6 90 3e 4e 90 a1 be 62 47 c6 3b
       0.024254207 0.28252143 -0.31555408 0.00605099
000010 e5 b2 2f bd 95 a9 a2 bd af cb 37 3f f8 df 89 bd
       -0.042895216 -0.079425015 0.7179517 -0.06732172
000020 7c 0e 8b 3d 96 2f 58 3c 27 8e d6 bd 86 bc 24 bd
       0.06789872 0.013194939 -0.10476332 -0.040218852
000030 fa d1 0d 3e db 91 45 be d1 82 3f be fa 75 da bd
       0.13849631 -0.1929392 -0.18702246 -0.106670335
000040 bd 3c 33 be c7 17 df 3d 23 63 a1 3c 5c 33 19 bc
       -0.17503639 0.10893207 0.019700592 -0.009350624
000050 c3 bb de bd 3b ee c8 3c 25 6f a1 bd 5f 65 52 3e
       -0.108756565 0.02452766 -0.07882527 0.20546483
000060 d3 87 58 3d 38 3d 34 3c 9b 89 8b be b2 09 04 3e
       0.052863907 0.011000924 -0.27253422 0.12894323
000070 26 72 d7 bd da 34 b4 bd ab be 80 be de 1d ac bd
       -0.10519819 -0.08799143 -0.25145468 -0.08404134
000080 1b aa fb bd da 40 1b be 2c 52 fc bd 2b 99 8a bd
       -0.122883044 -0.15161458 -0.123203605 -0.06767496
000090 3c 16 c8 bd 69 e5 13 3f fa 5a 78 3c 34 cc 7a 3e
       -0.09769866 0.5777193 0.015158409 0.2449196
0000a0 4e a1 70 be 10 80 45 bd c5 89 5f bc 2f 32 5d bd
       -0.23499033 -0.048217833 -0.013643687 -0.054002937
0000b0 0f b3 14 bd 6e ed ff 3e 62 f5 f6 bc 99 34 e6 bd
       -0.036303576 0.49985832 -0.030146305 -0.11240501
0000c0 d3 60 0a 3f fa 78 17 3d 2d a0 43 3e 84 7b 63 3f
       0.5405399 0.036980607 0.19104071 0.88860345
0000d0 d3 46 45 3d 76 b3 49 be 8f 2e f6 bd 46 b1 d7 bc
       0.048163246 -0.19697365 -0.12020599 -0.026329648
0000e0 28 1a a5 bd 9f ae 17 3f 58 e6 0b be 36 62 4b bd
       -0.080616295 0.59250826 -0.13662088 -0.049654208
0000f0 7b 02 05 be 00 f9 3d 3f 60 62 d4 bc d9 d9 29 bd
       -0.12989227 0.7420807 -0.025925815 -0.04146752

layers.1.weight f4 [5, 64]
000000 91 4d ec bd c1 84 58 be 20 d9 03 be 02 75 84 3d
       -0.11538232 -0.21144392 -0.12875795 0.0646763
000010 a7 26 40 3c 8e 6f 39 3d 92 d1 c3 3d 25 cd 07 be
       0.011727965 0.045272402 0.09561457 -0.1326185
000020 d1 0b 89 3d 72 77 9f 3d 44 93 a0 3d 8e 63 9c bc
       0.06691707 0.07786454 0.07840589 -0.01909044
000030 e5 14 99 3e 1f 33 06 3e 92 5c 72 3d 26 5f bf 3d
       0.29898754 0.13105439 0.059170313 0.0934432
000040 b0 fa 7c 3d a4 9e fe 3d d0 56 a6 3c 9f a2 6f 3b
       0.06176251 0.12432602 0.020305067 0.0036565436
000050 eb 1d 08 be 87 5e 1e 3e 93 97 39 bd 50 75 8d be
       -0.13292663 0.15465747 -0.045310568 -0.27628565
000060 c6 e5 89 bd fd b4 35 be 3c b3 09 3e aa 54 d9 be
       -0.06733279 -0.17744823 0.13447279 -0.42447406
000070 34 4c 83 3d 2b 84 25 be 32 2f 26 3e 18 58 95 bc
       0.06411019 -0.161637 0.16228941 -0.018230483
000080 60 20 6c 3d 25 f2 4e 3e 9c 45 3c be 62 06 97 bd
       0.057648063 0.20209558 -0.18385929 -0.07374264
000090 08 00 32 bc 62 1a fc 3d 21 52 fc 3c f2 87 aa be
       -0.010864265 0.123097196 0.03080088 -0.33306843
0000a0 74 21 b0 3e 06 c0 80 3d f6 f4 22 bb c5 b7 8f 3d
       0.34400523 0.062866256 -0.0024865246 0.07017473
0000b0 2b cf c3 3c 84 b0 90 3e 9f 34 e4 3d 9f 2b 01 be
       0.023902496 0.2825967 0.11142849 -0.12614296
0000c0 2b 87 16 3e 8e 17 aa 3b c4 19 fb bc 42 51 93 bf
       0.147 0.005190796 -0.030651934 -1.1509173
0000d0 9e dd 1f 3d d1 c9 00 bc f0 4b ec 3c 95 b7 02 be
       0.03902971 -0.007860617 0.028844804 -0.12765343
0000e0 1f 54 97 bd 6d d7 b8 3d 9e 88 c7 3d cd 4e 7d 3e
       -0.07389092 0.09025464 0.097428545 0.24737091
0000f0 8a dd 0d 3d 79 8f 67 3e c8 f5 17 be 1e 6e 8f bd
       0.034635104 0.22613324 -0.14839852 -0.07003425
000100 05 7e fa bc 02 45 b5 3e e1 cb dc 3e cf 26 53 be
       -0.030577669 0.3540421 0.43124297 -0.20620273
000110 0e b5 7b bc 35 35 15 3d 7e 75 80 3d 77 32 05 be
       -0.015362991 0.036427695 0.0627241 -0.13007532
000120 9d 3b fa 3d 0d 8d 9f 3d 88 ad 06 be 0a 3f 0c be
       0.122184016 0.07790575 -0.13152134 -0.13695922
000130 d8 cf 56 be 90 72 19 3e de 58 93 3d a4 c5 42 be
       -0.20977724 0.14985108 0.071946844 -0.19020706
000140 b1 8b 3a 3d 81 ce 38 be 95 72 8c 3d 52 74 29 3e
       0.045543376 -0.18047525 0.06857792 0.16548279
000150 af 65 0e be d6 e8 98 bb a6 c9 b4 3c 60 f0 6b 3c
       -0.13905977 -0.004666428 0.02206881 0.014400572
000160 ec 6f 19 be 44 b1 f4 bd d1 19 31 3e f2 59 20 3d
       -0.14984101 -0.11947873 0.17295004 0.03914828
000170 0d 6e c4 bc 38 62 d3 bd 21 18 2b be a8 e4 9a bc
       -0.023978258 -0.10321468 -0.16708423 -0.01890786
000180 cf 7d 60 3c 74 41 ba bd e4 ee 30 3e ae 0f 15 bd
       0.01370187 -0.090945154 0.1727863 -0.036391906
000190 88 19 51 bd dc 10 90 bf 79 7b f6 3d 78 b9 47 be
       -0.05104974 -1.1255145 0.12035269 -0.19504344
0001a0 98 79 2e be 99 67 a4 3d 27 0e a2 bd dc 07 8f bd
       -0.17038572 0.08027572 -0.079128556 -0.06983921
0001b0 9f 24 91 bd da f4 a1 3d b1 5b 6e bc a9 28 86 3d
       -0.07087063 0.0790803 -0.014548228 0.06550724
0001c0 b1 ad ec 3d f1 6d 1c 3e 0f 82 63 3d a3 56 06 3e
       0.115565665 0.15276314 0.055543955 0.13118987
0001d0 ff d4 02 bd a3 0a 30 bc cb bd f5 3c 7c df 47 3e
       -0.03194141 -0.0107447235 0.029997727 0.19518846
0001e0 2f 82 15 bd 98 a9 7d 3e f7 74 39 be 9a 45 ee bd
       -0.036501106 0.24771726 -0.18111025 -0.11634369
0001f0 07 b4 c7 3d bc 5c 1a 3e 33 c5 b0 3e 19 9a d8 3d
       0.09751134 0.15074438 0.3452545 0.10576267
000200 2f 81 65 bc c9 57 f3 bd b8 96 a3 bd e6 ae ac bb
       -0.014007851 -0.11881978 -0.07987732 -0.005269873
000210 5d 9c 2a bd d6 bd 24 3d 6f ba 53 3e d7 4b 65 3e
       -0.041653026 0.040220104 0.20676588 0.22392212
000220 69 5f 2d be 14 0d e0 3d 54 32 bd 3d 22 6e d9 3d
       -0.16930927 0.109399945 0.09238115 0.10616709
000230 0d 2d f1 bd e7 8b 9d be a7 2d 98 bd 6a b2 68 3d
       -0.11776171 -0.307708 -0.074305825 0.056810774
000240 c0 bd 6c bd 51 98 48 bc a7 28 ca 3d c2 89 6f bc
       -0.057798147 -0.012243346 0.09871035 -0.014620246
000250 99 dd 20 3e 21 df 78 bd 8c d0 40 bd 1d fa cc 3e
       0.15709533 -0.060759667 -0.047073886 0.4003457
000260 3c 77 34 bd 97 e3 61 be 6d 3f b6 3c 3b 92 ac 3d
       -0.044059023 -0.22059475 0.02224704 0.08426329
000270 e6 af eb 3d 44 94 92 3e e1 b5 30 be 04 1e de 3d
       0.11508159 0.28628743 -0.17256881 0.10845569
000280 3e 29 50 3e 35 81 46 3e 7b 8c d9 3d a1 63 25 bd
       0.20328233 0.19385226 0.10622498 -0.040378217
000290 7c 5e 5e bd 01 37 2a 3e c5 5d 4a 3d 43 62 21 be
       -0.054289326 0.16622545 0.04940583 -0.1576014
0002a0 a4 06 ce bd 70 2f a2 bc 53 4e 23 bd 1e bd 1a 3e
       -0.1005986 -0.01979801 -0.039869618 0.15111205
0002b0 dd 35 bd bd e6 24 8e bd 22 2e c9 3c 74 b2 15 3e
       -0.09238789 -0.069406316 0.02455813 0.14618856
0002c0 07 ec 48 bf db 89 25 3d 5e 10 e2 be 89 f9 bc 3d
       -0.7848515 0.040414672 -0.44153112 0.092272826
0002d0 99 e0 96 3d 26 e6 75 3c 48 00 94 3d ca 11 52 be
       0.07367057 0.015008485 0.07226616 -0.20514598
0002e0 2c ab 04 bd 25 78 f0 3c 6c fd 1b 3e a0 a0 aa bd
       -0.032389805 0.029354164 0.15233392 -0.08331418
0002f0 c2 f6 a5 bd 22 49 33 bf 5b 0c 0c be ac a3 6c bd
       -0.08103706 -0.70033467 -0.13676588 -0.057773277
000300 b6 58 9c bb 87 e5 5d bc 96 4c 1f bd 27 44 5b 3e
       -0.0047713174 -0.013543493 -0.038891397 0.21412717
000310 90 56 ec bd b4 2d 80 3d 55 b4 2d bf 32 8d ae bd
       -0.11539948 0.06258717 -0.6785329 -0.085230246
000320 6f 08 c8 3c 22 53 28 be 2b ef 60 3d 41 e2 6e 3d
       0.024418084 -0.16437963 0.05491559 0.05832124
000330 23 4b c9 ba d7 73 1a 3d e2 94 79 3d c1 72 c9 3d
       -0.0015357475 0.03770813 0.060933 0.09836341
000340 9e 71 a9 3c ab fa 60 bd e8 c8 53 be 0b a1 2a 3e
       0.02068406 -0.054926556 -0.20682108 0.16662996
000350 5b 98 66 3e 13 e4 0f be ba 4d 44 bc f3 2c 84 bd
       0.22519056 -0.14051847 -0.011981422 -0.06453886
000360 45 35 d2 3d 30 85 e8 3e ad 38 a3 bc 67 d3 b7 3d
       0.102640666 0.45414114 -0.019924486 0.08975869
000370 66 05 74 3d bf a4 8b bd b3 e0 1c 3e c9 73 d3 bb
       0.05957546 -0.06818532 0.15320091 -0.0064530117
000380 2f af e5 bd 64 2b 40 be 9c 11 39 be 20 27 30 3d
       -0.11215054 -0.18766552 -0.18073124 0.043006063
000390 5c 77 75 bb a7 b7 fd 3d 94 83 9a 3d fc f1 90 3e
       -0.0037455177 0.123885445 0.07544628 0.2830962
0003a0 57 e0 dc bd 04 e9 01 3d 7a b7 4d 3e 4e e5 23 3d
       -0.10784977 0.03171636 0.20089522 0.040013604
0003b0 6b 39 c3 ba e6 c2 0d bf a6 77 24 3b ce a8 e1 3c
       -0.0014894431 -0.55375516 0.002509573 0.027546313
0003c0 5e 4f bb 3d 96 18 b8 3b db 1a 72 3e be e2 b7 3d
       0.091459975 0.0056181652 0.23643057 0.089787945
0003d0 38 47 ec 3c ad e4 72 3d 6a e1 d0 bc 7e 2f 2e bd
       0.028842553 0.059300113 -0.02549811 -0.04252576
0003e0 24 d1 45 bd 7a 98 4a bf 62 a4 02 3e 11 25 bf bd
       -0.048295155 -0.7913891 0.1275802 -0.09333242
0003f0 3a 35 9d bd 49 b4 3c 3e b2 73 21 be 0a b9 3b bd
       -0.07676168 0.18428148 -0.1576679 -0.045830764

layers.1.bias f4 [5]
000000 5a 1c d3 3d 03 36 80 bd c3 33 95 3d 6c df 5d bd
       0.10308142 -0.06260302 0.072852634 -0.05416815
000010 d5 b4 6d be
       -0.23213513
